cifar_net.pth (torch_old, 268603 bytes, 10 tensors)

conv1.weight f4 [16, 3, 5, 5]
-0.19254015 0.066295646 0.38727787 -0.2270022 -0.14094001 -0.2791657 0.111812234 0.48783657
-0.11235687 -0.28347906 -0.41085833 -0.10601621 0.55382955 -0.07236584 -0.290861 -0.20116428
-0.28481194 0.20958364 0.32505453 -0.23168437 -0.0035678477 -0.08734066 -0.029358923 0.36553428
0.02454464 -0.11086531 0.014360333 0.4765336 -0.16981691 -0.13173316 -0.43444166 0.12874755
0.5899256 -0.15199783 -0.20411769 -0.38991407 0.04430907 0.463811 0.066406034 -0.23642966
-0.22710672 -0.11270236 0.36537182 0.28072715 -0.24601492 -0.036498073 -0.13687833 -0.03174502
0.29835975 0.04051936 -0.16858223 0.21000953 0.20017461 -0.2123611 -0.11694939 -0.23862801
0.02212593 0.4204307 -0.2085532 -0.15315759 -0.13498783 0.02743406 0.47850502 0.11232292
-0.3679794 -0.090951115 -0.1296107 0.13350303 0.20069063 -0.29729912 0.20597237 -0.11610228
0.09802095 0.1278314 -0.021279087 0.095285974 0.14836924 0.10130059 0.07280322 0.05057209
-0.0002316114 0.18399167 0.067798376 0.16241376 0.0681912 0.1283206 0.15014407 0.06743304
0.17035401 0.1677058 -0.023049291 0.10270772 0.2029032 0.106324576 0.0096060885 -0.13810836
0.016675398 0.14453837 0.12479952 0.12404456 -0.2395446 -0.16648377 -0.089355476 -0.023470152
-0.12970458 -0.18659641 -0.19458283 -0.065924875 0.0054311184 -0.1600403 -0.3101628 -0.18108132
-0.14057605 -0.11318651 -0.14745203 -0.28312624 -0.1541164 -0.04550688 -0.06270801 0.06400038
-0.16732576 -0.15669389 -0.011646809 -0.19723895 -0.030141514 0.10078202 -0.009300497 0.012534808
0.113777675 0.03431252 0.0048343437 0.054016646 0.103745565 -0.029191913 0.12245743 -0.138286
-0.004563047 0.16760476 -0.033559065 0.021847596 -0.047688235 -0.0078034513 0.14443532 -0.01660254
-0.03877013 -0.106466465 -0.12028397 -0.041780412 -0.008977938 -0.08484007 -0.003027716 -0.01057617
0.022325944 -0.010830019 -0.079375245 -0.10586003 0.1902548 0.012119707 -0.30926344 0.052854724
-0.006438081 0.08247305 -0.11481756 0.14024161 0.14309403 0.22283427 -0.2785866 -0.04486998
0.44253755 -0.23968479 0.113771886 -0.028600097 0.13310435 0.21154769 -0.07263294 0.0115092555
0.11991891 0.16110726 0.030249652 0.060940042 0.087413274 0.19858323 0.110447094 -0.069427356
0.23430759 0.10108989 0.012863757 -0.019392194 0.074375845 0.17173564 0.2551851 -0.18915613
0.0710077 0.4881907 -0.21991983 0.08928602 0.039737675 0.111571826 0.120408386 -0.0818028
-0.17885232 -0.10133806 -0.13835731 -0.17820153 -0.089094974 -0.06556556 0.12498193 -0.22278889
-0.25323856 0.113998435 -0.07051164 -0.18491545 -0.12714706 -0.021779351 -0.028992571 0.096759245
-0.3005076 0.013504668 0.33210668 -0.23975542 -0.025007838 -0.18347454 0.033293206 -0.04421938
-0.26549363 0.15465786 0.15338394 0.19320108 0.19358252 0.1908131 0.23857023 0.25054172
0.30915496 0.25198272 0.27330157 0.025736079 0.14719221 0.015371145 0.16079707 0.1356602
-0.32713473 -0.34062892 -0.31648883 -0.26982966 -0.10623699 -0.05115952 -0.14024007 -0.114414915
-0.20175833 -0.17183736 -0.19651031 -0.24683644 -0.2437445 -0.2290565 -0.26518437 -0.086491235
00000000: 3f29 45be 03c6 873d 4949 c63e 4473 68be
00000010: 9452 10be ceee 8ebe d0fd e43d b7c5 f93e
00000020: 5c1b e6bd 2b24 91be 065c d2be 071f d9bd
00000030: c6c7 0d3f 8b34 94bd bceb 94be 02fe 4dbe
00000040: dfd2 91be 189d 563e 8c6d a63e ab3e 6dbe
00000050: 8dd2 69bb a9df b2bd 2082 f0bc 4f27 bb3e
00000060: d711 c93c 5a0d e3bd 9a47 6b3c 36fc f33e
00000070: 7ce4 2dbe 0fe5 06be 236f debe 66d6 033e
00000080: 5d05 173f 52a5 1bbe 3a04 51be d1a2 c7be
00000090: 6d7d 353d a378 ed3e e3ff 873d 9e1a 72be
000000a0: aa8e 68be 7fd0 e6bd 0412 bb3e 78bb 8f3e
000000b0: 56eb 7bbe 017f 15bd d529 0cbe 1107 02bd
000000c0: 9cc2 983e a1f7 253d d2a0 2cbe bd0c 573e
000000d0: 93fa 4c3e 3075 59be 2983 efbd e75a 74be
000000e0: 7041 b53c b142 d73e f88e 55be 58d5 1cbe
000000f0: 403a 0abe 65bd e03c 9cfe f43e 8f09 e63d
00000100: cc67 bcbe 9444 babd abb8 04be 05b5 083e
00000110: d881 4d3e 9737 98be 6cea 523e 08c7 edbd
00000120: 35bf c83d 3ce6 023e 7b51 aebc 4b25 c33d
00000130: 1bee 173e af76 cf3d db19 953d ae24 4f3d
00000140: b6dc 72b9 5068 3c3e e0d9 8a3d cb4f 263e
00000150: d4a7 8b3d 7a66 033e 5ebf 193e 551a 8a3d
00000160: 4871 2e3e 12bb 2b3e ded1 bcbc 6d58 d23d
00000170: dbc5 4f3e b3c0 d93d db62 1d3c 476c 0dbe
00000180: d89a 883c de01 143e e496 ff3d 130b fe3d
00000190: 2e4b 75be b97a 2abe 0100 b7bd 7a44 c0bc
000001a0: 47d1 04be 2113 3fbe b940 47be 9f03 87bd
000001b0: 86f7 b13b 9be1 23be a9cd 9ebe 626d 39be
000001c0: 2bf3 0fbe 54ce e7bd aafd 16be ecf5 90be
000001d0: b1d0 1dbe 6c65 3abd 0f6d 80bd a212 833d
000001e0: 7257 2bbe 5d74 20be 42d2 3ebc 02f9 49be
000001f0: 56eb f6bc ce66 ce3d 1d61 18bc cc5e 4d3c
00000200: 4504 e93d 498b 0c3d 6a69 9e3b 8f40 5d3d
00000210: 8e78 d43d e123 efbc f6ca fa3d d89a 0dbe
00000220: 9d85 95bb 95a0 2b3e 3b75 09bd bbf9 b23c
00000230: bd54 43bd 18b4 ffbb dae6 133e 0d02 88bc
00000240: 6ecd 1ebd 170b dabd 7157 f6bd f021 2bbd
00000250: 3418 13bc a1c0 adbd a56c 46bb ac47 2dbc
00000260: e6e4 b63c 6470 31bc 7d8f a2bd 25cd d8bd
00000270: 27d2 423e bc91 463c c757 9ebe 327e 583d
00000280: 8af6 d2bb a1e7 a83d 7825 ebbd 7f9b 0f3e
00000290: 3e87 123e ab2e 643e e7a2 8ebe 96c9 37bd
000002a0: 4894 e23e ee6f 75be 3c01 e93d c04a eabc
000002b0: 824c 083e f59f 583e 94c0 94bd 5191 3c3c
000002c0: 0c98 f53d 4df9 243e 1ece f73c 449c 793d
000002d0: bb05 b33d 6759 4b3e 1632 e23d ee2f 8ebd
000002e0: 54ee 6f3e 3708 cf3d 82c2 523c 61dc 9ebc
000002f0: 5d52 983d 78db 2f3e 9fa7 823e 25b2 41be
00000300: 7c6c 913d 22f4 f93e aa32 61be 97db b63d
00000310: f9c3 223d c57f e43d ac98 f63d 3a88 a7bd
00000320: 1025 37be 548a cfbd 8aad 0dbe 767a 36be
00000330: 6d77 b6bd 3c47 86bd 87f6 ff3d c522 64be
00000340: 7ca8 81be 0378 e93d 6868 90bd 7a5a 3dbe
00000350: d732 02be 9c6a b2bc d481 edbc b629 c63d
00000360: 22dc 99be af42 5d3c e309 aa3e 7282 75be
00000370: 3ddd ccbc c0e0 3bbe 755e 083d 611f 35bd
00000380: c8ee 87be a15e 1e3e ae10 1d3e 81d6 453e
00000390: 7f3a 463e 8264 433e c14b 743e 0147 803e
000003a0: 8f49 9e3e e103 813e 2fee 8b3e 78d4 d23c
000003b0: 8eb9 163e 41d7 7b3c fda7 243e 82ea 0a3e
000003c0: 347e a7be ea66 aebe d30a a2be 1d27 8abe
000003d0: c792 d9bd a58c 51bd 189b 0fbe 5e52 eabd
000003e0: bc99 4ebe 22f6 2fbe 003a 49be b1c2 7cbe
000003f0: 2998 79be ca8d 6abe 3fc6 87be 5122 b1bd

conv1.bias f4 [16]
-0.28707144 -0.2819751 -0.09059789 -0.33859763 -0.15972689 0.13742614 -0.19817454 -0.25628892
-0.32086846 -0.36476904 -0.007326158 -0.19147454 -0.4511351 -0.79333127 -0.29552704 -0.43077463
00000000: 07fb 92be 0a5f 90be 638b b9bd ab5c adbe
00000010: 728f 23be 70b9 0c3e 44ee 4abe 4d38 83be
00000020: df48 a4be 02c3 babe 4510 f0bb e711 44be
00000030: 2efb e6be c217 4bbf 524f 97be 7e8e dcbe

conv2.weight f4 [16, 16, 5, 5]
0.021387078 -0.050296236 0.03946937 0.08369349 0.06878344 0.055100303 -0.084645264 0.1040614
0.0371863 0.24534701 0.10436314 -0.110360295 0.20519121 0.013347511 0.23578525 0.13171831
0.0044269552 0.08783895 0.058175895 0.016350394 0.02854152 0.053852774 0.005166235 0.015878255
-0.024499714 0.10233155 0.029460497 0.010108333 0.13934475 0.13082781 0.05314879 -0.037516423
0.01751509 -0.0062145055 0.082493104 -0.021129787 0.07222044 0.068422824 0.020548362 0.06111702
0.008904595 0.021933643 0.05591956 -0.022284448 -0.008197681 -0.015026457 -0.034461267 -0.05585863
-0.046644125 -0.026106847 0.098624945 0.031572673 -0.036045358 0.020953948 0.0250871 0.09287994
0.013783078 0.009238625 -0.01634468 0.06080102 0.0121339755 0.022449933 0.025788782 0.024326902
0.00097588776 0.0025463155 -0.050174017 -0.010755711 -0.02057892 -0.058398545 0.008783644 -0.08122122
-0.011804189 -0.08127122 -0.053388476 0.07240414 0.10000313 0.11447833 0.11079392 0.06944311
0.051082067 0.009223209 0.04475539 0.04685228 0.03497352 -0.008869892 0.010471745 0.007042792
-0.029196648 -0.035100825 -0.08933702 0.020265644 -0.012617338 -0.066815495 -0.11793178 -0.15465762
-0.06404765 -0.09757143 -0.07559874 -0.04431553 -0.029244162 0.066140525 0.19626366 0.15666723
0.02377334 -0.0933028 -0.048893165 0.03383165 0.13334328 0.09737014 -0.12341882 -0.0059871553
0.026977597 0.028935116 0.08724333 -0.04859312 0.0643048 0.042181615 0.023902025 -0.07917804
-0.058706712 -0.03431397 0.06405187 0.09348194 0.0459861 -0.1739082 -0.02790746 0.02490983
-0.047304444 -0.08762705 -0.026169196 0.022680584 0.014240785 0.078668684 0.026224185 0.0054239603
0.091209054 0.032474577 0.014292718 -0.045922313 -0.1216525 -0.06358707 -0.023709528 -0.026664954
-0.1662161 -0.16350761 -0.07995955 -0.12849021 -0.061393306 -0.17582041 0.21658249 0.09161502
0.11263249 0.09669878 0.18172155 0.0022142872 0.015230859 0.105547294 0.022352079 0.04342832
0.011311981 0.046865765 -0.019164197 0.026819348 0.09049626 0.0039826967 0.09932776 0.09644196
0.013107924 0.062499758 0.052215338 0.12673132 0.13743474 0.05392675 0.037228305 -0.18368532
-0.07950695 -0.046406485 0.049422894 0.017017564 -0.07115134 -0.12229231 -0.06422045 -0.015263927
0.049001735 -0.004943638 -0.10482115 0.016849324 0.06238802 0.10413351 0.019830422 0.008178187
0.027418932 0.0366735 0.058268927 0.011592539 -0.013684243 -0.008674537 -0.0019416016 0.009326658
0.038678765 -0.006679271 0.15662801 0.028666064 0.045023985 0.06042573 -0.07417924 0.16865729
-0.06941614 0.052365165 0.12459212 -0.112750724 0.08590523 0.05032312 0.020845175 0.06073844
-0.13038272 -0.07541683 -0.026174407 -0.11210061 -0.11125039 -0.049226448 -0.098137565 -0.14398633
-0.0944372 0.14650498 0.04318087 0.07171913 0.059733734 0.04248068 -0.050014146 -0.029258523
0.0034457596 -0.060222585 -0.058004808 -0.01046711 -0.0011223939 -0.00866682 -0.027112918 0.043875217
-0.0001739047 0.034958884 0.03303116 0.058733586 -1.9793835e-05 -0.07092855 -0.07279915 0.048790816
-0.08822116 -0.07672723 -0.004240093 -0.015798524 -0.041635074 -0.10973961 -0.14991368 0.037328444
00000000: f433 af3c 6d03 4ebd a2aa 213d 7e67 ab3d
00000010: 55de 8c3d dbb0 613d 7f5a adbd 251e d53d
00000020: a950 183d 3f3c 7b3e 58bc d53d 9404 e2bd
00000030: a51d 523e 85af 5a3c b071 713e 2ae1 063e
00000040: fe0f 913b e8e4 b33d d949 6e3d 43f1 853c
00000050: e8cf e93c ba94 5c3d 8549 a93b 1d13 823c
00000060: a0b3 c8bc 3493 d13d 2457 f13c 6c9d 253c
00000070: 64b0 0e3e baf7 053e 8cb2 593d d2aa 19bd
00000080: ce7b 8f3c 0da3 cbbb 25f2 a83d 6018 adbc
00000090: 4fe8 933d 4421 8c3d 0a55 a83c d755 7a3d
000000a0: 94e4 113c 2fae b33c e90b 653d e08d b6bc
000000b0: 914f 06bc 8731 76bc 4227 0dbd 05cc 64bd
000000c0: e90d 3fbd 07de d5bc e0fb c93d 5952 013d
000000d0: 4ca4 13bd 9da7 ab3c 7683 cd3c d737 be3d
000000e0: 6bd2 613c 9a5d 173c 47e5 85bc 7e0a 793d
000000f0: 95cd 463c ece8 b73c ff42 d33c 3649 c73c
00000100: b8d2 7f3a 16e0 263b 4583 4dbd b938 30bc
00000110: 2095 a8bc 5033 6fbd 46e9 0f3c 5057 a6bd
00000120: 5b66 41bc 8771 a6bd e0ad 5abd 9f48 943d
00000130: 71ce cc3d 9d73 ea3d ece7 e23d 3038 8e3d
00000140: 6e3b 513d f11c 173c 6e51 373d 2de8 3f3d
00000150: 6540 0f3d 0653 11bc af91 2b3c 39c7 e63b
00000160: cf2d efbc e2c5 0fbd 54f6 b6bd 2304 a63c
00000170: f4b8 4ebc 90d6 88bd 3886 f1bd 915e 1ebe
00000180: 6a2b 83bd 88d3 c7bd 83d3 9abd 3484 35bd
00000190: 7491 efbc af74 873d 57f9 483e 606d 203e
000001a0: 4fc0 c23c 8a15 bfbd 3344 48bd 0e93 0a3d
000001b0: 248b 083e ff69 c73d 02c3 fcbd e62f c4bb
000001c0: 1f00 dd3c 5609 ed3c a2ac b23d 9409 47bd
000001d0: 3cb2 833d a1c6 2c3d 2ece c33c 1928 a2bd
000001e0: 7376 70bd ce8c 0cbd a02d 833d 7673 bf3d
000001f0: ec5b 3c3d fe14 32be 309e e4bc b30f cc3c
00000200: 4ec2 41bd d075 b3bd c860 d6bc a2cc b93c
00000210: 2e52 693c 0c1d a13d 1ad4 d63c 7abb b13b
00000220: d0cb ba3d 1004 053d 012c 6a3c 0919 3cbd
00000230: f224 f9bd f039 82bd 7c3a c2bc 7670 dabc
00000240: 8e34 2abe 8a6e 27be d5c1 a3bd f092 03be
00000250: 8c77 7bbd 440a 34be cdc7 5d3e a8a0 bb3d
00000260: ddab e63d 030a c63d 3715 3a3e 931d 113b
00000270: da8a 793c 2e29 d83d b51b b73c e5e1 313d
00000280: e355 393c 51f6 3f3d 3cfe 9cbc 40b4 db3c
00000290: 1a56 b93d 4881 823b 5a6c cb3d 5d83 c53d
000002a0: 9ec2 563c bfff 7f3d c0df 553d dbc5 013e
000002b0: b1bb 0c3e 4ce2 5c3d b57c 183d 0118 3cbe
000002c0: 8ad4 a2bd ba14 3ebd a96f 4a3d 6b68 8b3c
000002d0: cbb7 91bd 6474 fabd 0386 83bd 8d15 7abc
000002e0: 0bb6 483d 3efe a1bb 79ac d6bd 9807 8a3c
000002f0: 958a 7f3d f343 d53d 6973 a23c cdfd 053c
00000300: ab9d e03c f436 163d 66ab 6e3d a2ee 3d3c
00000310: e033 60bc a51f 0ebc 577d feba d7ce 183c
00000320: a06d 1e3d c9dd dabb 1863 203e 18d5 ea3c
00000330: 126b 383d f880 773d 49eb 97bd 7fb4 2c3e
00000340: 0d2a 8ebd db7c 563d 272a ff3d dae9 e6bd
00000350: 15ef af3d 9e1f 4e3d 80c3 aa3c dfc8 783d
00000360: 0c83 05be 2474 9abd b66b d6bc 0195 e5bd
00000370: 3fd7 e3bd aca1 49bd 59fc c8bd 2771 13be
00000380: 4a68 c1bd 6705 163e 6dde 303d 7be1 923d
00000390: 5cab 743d 3900 2e3d a2db 4cbd 92af efbc
000003a0: 41d2 613b f5ab 76bd 7396 6dbd 3e7e 2bbc
000003b0: 4a1d 93ba 47ff 0dbc e91b debc 80b6 333d
000003c0: 305a 36b9 0c31 0f3d ae4b 073d a192 703d
000003d0: f00a a6b7 fd42 91bd b917 95bd e1d8 473d
000003e0: 4cad b4bd 2a23 9dbd 7af0 8abb e86b 81bc
000003f0: 8a89 2abd 29bf e0bd f982 19be b6e5 183d

conv2.bias f4 [16]
-0.15927564 -0.47702697 -0.28287777 0.86110246 -0.0950824 0.11791535 -0.24371906 0.19681804
0.5401109 0.26795986 0.1483622 -0.065735064 -0.25409505 -0.1557815 0.13701952 0.07719042
00000000: 2719 23be e13c f4be 5bd5 90be 3671 5c3f
00000010: 90ba c2bd 9a7d f13d 7d91 79be ab8a 493e
00000020: b544 0a3f 0932 893e 43ec 173e 1ba0 86bd
00000030: bf18 82be 2f85 1fbe d84e 0c3e 0316 9e3d

fc1.weight f4 [120, 400]
-0.033125035 -0.036212813 -0.040576376 0.010826238 -0.027063632 0.037765387 -0.032880593 -0.052698962
0.0070776236 -0.051769264 -0.027158344 0.038682465 0.018814933 -0.04486025 0.03743731 -0.021164548
0.0075638737 -0.032087676 0.04992428 0.05237611 -0.044204686 -0.042146802 -0.0018576524 0.01642178
-0.03411938 0.032496046 0.022518711 0.03464894 0.006257723 -0.029512407 -0.04651904 0.011012991
-0.045000814 0.017622272 -0.030434834 -0.023726711 0.03914666 -0.046056617 -0.011533339 -0.011577327
0.038172517 0.02524468 0.038985386 -0.008948825 -0.046368033 0.022595037 -0.009597139 0.017895436
-0.022333179 -0.010335051 -0.03855003 -0.021126665 -0.0032061927 -0.03924491 -0.028306179 -0.039154
0.0060362164 -0.036646735 0.03404761 -0.03607841 -0.020411069 -0.009092268 -0.020460892 0.025029004
-0.042816117 -0.033080436 -0.048021466 0.01059 -0.034258816 -0.020638788 0.0325097 -0.019233197
0.017611606 0.034606956 -0.014082903 -0.04060174 -0.025125077 -0.010679782 -0.023170184 -0.042756144
0.026467113 0.033823982 0.0060392898 -0.05036968 -0.028247016 -0.031906795 -0.009498655 -0.0016742821
-0.025760364 0.014431059 0.00688559 -0.050203383 -0.030695982 0.0155234365 0.020932665 0.023196587
-0.036387283 -0.0026347514 0.028816724 0.01419201 0.0370665 -0.03867717 0.017681105 0.009897877
-0.0294136 0.036923844 -0.04443411 -0.019362876 -0.047973514 0.025299802 -0.014033536 0.008927382
-0.04575992 0.010198837 0.015346158 0.01365083 -0.042875435 -0.0015498884 0.04277381 0.02326371
0.004621624 -0.030900063 -0.01340691 -0.023978317 0.0051528173 -0.031583764 -0.03138679 -0.023580635
-0.04020037 -0.0060334797 0.024510046 -0.04264177 -0.015542694 0.0131238615 0.02484876 -0.032639638
-0.046300184 -0.030294469 -0.0505943 -0.026011528 -0.04702337 0.015870765 0.02699841 0.04365668
-0.03471462 -0.029208545 0.010569269 -0.017969908 0.038904466 0.0033354817 -0.016326508 -0.0016078888
-0.04243842 0.004124548 0.009253705 0.00523097 0.036831036 0.011960093 0.036656417 0.038599398
0.04546189 0.008036879 -0.044863835 0.010103401 0.0026103202 0.043180276 0.008314309 0.012032829
0.0049823755 0.018694717 -0.01212941 -0.044548348 -0.014164433 -0.03176693 0.032728784 0.031874985
-0.043623455 -0.053326957 -0.0368682 -0.036103196 0.0200187 0.0053775073 0.041483346 0.03644907
-0.038028993 0.044583354 0.012927593 0.045884494 -0.037473314 0.041658405 -0.042712595 -0.006806546
-0.04824644 -0.054261323 0.030964796 -0.03408075 0.0013593549 0.0049358215 -0.04676318 -0.046492778
-0.02937857 -0.032307018 0.040289372 -0.02055166 0.019011918 0.030400082 0.027627518 0.028500574
-0.012018667 0.038367942 0.027276024 -0.022358505 -0.004223186 0.012703428 0.018113492 -0.039576653
-0.031909496 -0.022906775 -0.02791817 -0.015126919 -0.013091436 -0.049302593 0.01420793 -0.0129631115
-0.047303487 -0.0076480745 0.004900558 0.008793914 -0.009853096 -0.04137075 -0.018538965 -0.00912342
-0.010076124 0.04100288 -0.04113077 0.0313727 0.04274752 -0.03427657 -0.04855906 0.023447342
-0.033053424 0.028210957 -0.0071180887 0.020490466 0.029785592 -0.033114873 -0.049591053 0.027705597
-0.019798314 -0.0065154075 -0.004057167 -0.051689684 -0.022877121 -0.016097382 -0.04589473 -0.0479877
00000000: 1eae 07bd e353 14bd 6a33 26bd 8960 313c
00000010: 8db4 ddbc e1af 1a3d cdad 06bd deda 57bd
00000020: 69eb e73b 020c 54bd 2d7b debc 8171 1e3d
00000030: c621 9a3c 62bf 37bd dd57 193d 4661 adbc
00000040: 5fda f73b 5e6e 03bd 677d 4c3d 5588 563d
00000050: f90f 35bd 20a2 2cbd 797c f3ba f886 863c
00000060: c3c0 0bbd 931a 053d 2979 b83c 0cec 0d3d
00000070: 960d cd3b 01c4 f1bc c08a 3ebd d56f 343c
00000080: c652 38bd 955c 903c 7952 f9bc 855e c2bc
00000090: 4058 203d dda5 3cbd 54f6 3cbc d4ae 3dbc
000000a0: c95a 1c3d eecd ce3c 24af 1f3d 189e 12bc
000000b0: 68ec 3dbd 3a19 b93c 523d 1dbc 7399 923c
000000c0: 12f4 b6bc 5954 29bc a3e6 1dbd d411 adbc
000000d0: fd1e 52bb 45bf 20bd 5ce2 e7bc f25f 20bd
000000e0: 74cb c53b e31a 16bd 8275 0b3d f4c6 13bd
000000f0: 1d35 a7bc bcf7 14bc 9a9d a7bc a009 cd3c
00000100: f45f 2fbd 5a7f 07bd 28b2 44bd ae81 2d3c
00000110: f952 0cbd ad12 a9bc e428 053d f08e 9dbc
00000120: 3746 903c 06c0 0d3d fabb 66bc 034e 26bd
00000130: 1bd3 cdbc 41fa 2ebc 66cf bdbc 1121 2fbd
00000140: 8fd1 d83c 048b 0a3d 3ce5 c53b 7050 4ebd
00000150: 4966 e7bc b3b0 02bd 3fa0 1bbc 9673 dbba
00000160: 6607 d3bc 4070 6c3c 84a0 e13b 10a2 4dbd
00000170: 2476 fbbc 0356 7e3c fb7a ab3c c506 be3c
00000180: d50a 15bd cbab 2cbb 0d11 ec3c 9b85 683c
00000190: 0bd3 173d f46b 1ebd f7d7 903c b52a 223c
000001a0: caf4 f0bc 753d 173d 8b00 36bd e59e 9ebc
000001b0: e07f 44bd 8841 cf3c ebec 65bc 2744 123c
000001c0: c16e 3bbd 0619 273c 746e 7b3c bba7 5f3c
000001d0: 279e 2fbd a025 cbba 9733 2f3d 8993 be3c
000001e0: fe70 973b 2122 fdbc a8a8 5bbc 2d6e c4bc
000001f0: f7d8 a83b fa5d 01bd 6f8f 00bd 2d2c c1bc
00000200: 25a9 24bd 7fb4 c5bb 4bc9 c83c 23a9 2ebd
00000210: c9a6 7ebc 7705 573c a08f cb3c 24b1 05bd
00000220: 43a5 3dbd 1b2c f8bc f83b 4fbd 2116 d5bc
00000230: 949b 40bd 6803 823c c52b dd3c 59d1 323d
00000240: eb30 0ebd c246 efbc ba2a 2d3c a135 93bc
00000250: 4a5a 1f3d 1998 5a3b 2bbf 85bc ccbf d2ba
00000260: e9d3 2dbd 3727 873b da9c 173c 8f68 ab3b
00000270: 24dc 163d 44f4 433c 0a25 163d 671a 1e3d
00000280: 3f36 3a3d 1dad 033c 24c3 37bd bc88 253c
00000290: e811 2b3b cddd 303d bd38 083c 5825 453c
000002a0: 3243 a33b aa25 993c 6fba 46bc 5478 36bd
000002b0: f011 68bc 0a1e 02bd 9e0e 063d 588f 023d
000002c0: 82ae 32bd 5e6d 5abd 1c03 17bd f2e0 13bd
000002d0: 42fe a33c cd35 b03b 71ea 293d 9f4b 153d
000002e0: 4ac4 1bbd 099d 363d 41ce 533c 61f1 3b3d
000002f0: 9e7d 19bd 01a2 2a3d 67f3 2ebd 7209 dfbb
00000300: 0f9e 45bd 1f41 5ebd e2a9 fd3c 4298 0bbd
00000310: 622c b23a acbc a13b c08a 3fbd 366f 3ebd
00000320: 54ab f0bc 5d54 04bd 7806 253d f45b a8bc
00000330: e2be 9b3c 9809 f93c 1b53 e23c 097a e93c
00000340: f1e9 44bc b427 1d3d f871 df3c 2f29 b7bc
00000350: a762 8abb 0a22 503c bf62 943c 211b 22bd
00000360: 88b3 02bd fda6 bbbc a5b4 e4bc e6d6 77bc
00000370: 767d 56bc 84f1 49bd 61c8 683c 3b63 54bc
00000380: 4dc1 41bd b39c fabb dc94 a03b 5914 103c
00000390: e16e 21bc 6074 29bd 07df 97bc 667a 15bc
000003a0: 5416 25bc a3f2 273d bd78 28bd a980 003d
000003b0: 0618 2f3d 9765 0cbd dde5 46bd a414 c03c
000003c0: 0763 07bd aa1a e73c db3e e9bb 9fdb a73c
000003d0: ea00 f43c 76a3 07bd fd1f 4bbd d9f6 e23c
000003e0: 1330 a2bc 337f d5bb fcf1 84bb 90b8 53bd
000003f0: cd68 bbbc a8de 83bc 1dfc 3bbd c08e 44bd

fc1.bias f4 [120]
0.010912843 -0.005781207 0.15674421 0.04333951 -0.03280492 0.051467918 0.2520499 0.059779294
-0.026955292 0.111778505 0.029925507 0.028855609 0.09194791 -0.03078895 0.14479773 -0.11306403
0.12651949 -0.023932839 0.03538951 0.07377562 0.009326886 0.045630544 -0.06390419 0.040257078
0.009706903 -0.18967447 -0.029717661 -0.017436694 0.056693595 0.024258658 0.04612047 -0.026419844
-0.049560357 -0.015415957 0.18411337 -0.0024836732 0.034737717 0.1889982 0.13107519 -0.046001785
0.0842285 0.1059887 0.115067996 -0.021268392 0.11861742 0.07213235 0.07622149 0.1417885
-0.019643106 0.10899746 0.1048668 0.11106178 -0.03461019 -0.06685278 0.030828757 -0.019772427
-0.037260707 0.057544168 0.06328367 0.063517235 0.008542425 -0.07541539 0.21145603 -0.008116204
0.04627406 -0.017899815 -0.0037188006 -0.0077050617 0.09443448 -0.0047448752 0.14757703 -0.058414984
0.089106694 -0.015591093 0.011737464 0.011689657 -0.099723674 0.04638062 0.04783864 -0.011378392
-0.23644057 -0.005606032 -0.02818195 -0.04657133 -0.021164022 -0.14689212 0.20022748 0.12591502
0.0064998753 0.027053067 -0.064118914 0.0051726494 0.09158375 0.054848853 0.105805114 0.062870145
0.040843517 -0.015571851 0.055936504 -0.032881014 -0.010767037 0.06627921 0.07462636 -0.044343818
-0.0012965736 0.05212382 0.17566384 -0.0071729133 0.061686516 -0.024474025 -0.024893176 -0.023627726
-0.022797614 -0.10079181 0.08109058 0.017417341 -0.0452167 0.12029127 0.08494334 0.043345224
00000000: c8cb 323c 4770 bdbb 8e81 203e c584 313d
00000010: 745e 06bd 06d0 523d af0c 813e 22db 743d
00000020: 58d1 dcbc 21ec e43d 5626 f53c 9962 ec3c
00000030: 304f bc3d 1c39 fcbc db45 143e 1d8e e7bd
00000040: 538e 013e cd0e c4bc 97f4 103d ac17 973d
00000050: cccf 183c 18e7 3a3d 33e0 82bd 9be4 243d
00000060: b409 1f3c 063a 42be 7472 f3bc 66d7 8ebc
00000070: 8b37 683d 18ba c63c d1e8 3c3d 6e6e d8bc
00000080: cdff 4abd 3693 7cbc 3788 3c3e 1fc5 22bb
00000090: 2349 0e3d bf88 413e 9338 063e 5e6c 3cbd
000000a0: fe7f ac3d 9b10 d93d c5a8 eb3d 0d3b aebc
000000b0: b1ed f23d 20ba 933d 031a 9c3d 0131 113e
000000c0: 94ea a0bc 0f3a df3d 68c4 d63d 5c74 e33d
000000d0: 6ac3 0dbd 1cea 88bd 978c fc3c c9f9 a1bc
000000e0: af9e 18bd 6fb3 6b3d de9a 813d 5315 823d
000000f0: 87f5 0b3c 6273 9abd ee87 583e d4f9 04bc
00000100: de89 3d3d a2a2 92bc 1fb7 73bb be7a fcbb
00000110: dd66 c13d e67a 9bbb 6f1e 173e 8d44 6fbd
00000120: 927d b63d c971 7fbc 7e4e 403c fa85 3f3c
00000130: ed3b ccbd 9bf9 3d3d 73f2 433d 6f6c 3abc
00000140: 7a1d 72be ceb2 b7bb d5dd e6bc 94c1 3ebd
00000150: 2c60 adbc e36a 16be 6f08 4d3e deef 003e
00000160: e8fc d43b 659e dd3c c750 83bd 547f a93b
00000170: 4390 bb3d 31a9 603d 5ab0 d83d 10c2 803d
00000180: 884b 273d 1421 7fbc ad1d 653d 3eae 06bd
00000190: 3a68 30bc 65bd 873d b4d5 983d dda1 35bd
000001a0: caf1 a9ba c97f 553d 39e1 333e c20a ebbb
000001b0: 00ab 7c3d c07d c8bc c6ec cbbc ef8e c1bc
000001c0: 10c2 babc f06b cebd d112 a63d d0ae 8e3c
000001d0: 2535 39bd 455b f63d c6f6 ad3d c38a 313d

fc2.weight f4 [84, 120]
-0.05286206 -0.117261894 -0.023992829 -0.12142593 -0.041033555 0.0009139202 -0.018818814 0.08303691
-0.05922453 0.03804385 -0.06937358 0.15175894 0.026522586 0.07524165 0.101422854 -0.08418459
-0.1279675 0.039100222 0.011654601 -0.07443411 -0.09044185 -0.06103339 -0.09005341 0.05262973
-0.03476282 -0.14770299 -0.0035487437 0.041130498 -0.0075144907 -0.076436356 0.081073985 0.0910757
0.12136405 -0.083528556 0.089893624 -0.019851567 -0.10650424 -0.06452505 0.011975356 0.007231208
0.07257481 -0.09752843 -0.038582433 -0.0066884854 0.024029821 0.091358274 0.11644576 0.1007373
-0.070687346 -0.0060055247 0.05694325 0.010476526 0.055255283 -0.11234397 0.062343985 -0.05226952
-0.06194401 0.101637736 -0.07062735 -0.016179923 -0.02602361 -0.0667267 0.040308658 0.044116016
0.0011897827 0.048083592 -0.07699927 -0.10193854 -0.013702599 0.06744604 0.13704889 -0.07415787
-0.013577768 -0.026107416 0.07637336 0.028749995 -0.006766424 0.09199494 0.11275019 -0.0031225812
-0.14011018 0.021890601 0.032007758 -0.060497988 0.053315874 0.05950163 0.05716253 0.05092437
0.07942739 0.041945234 -0.092009865 -0.01405548 -0.0019407938 -0.036699425 -0.079338625 -0.06560318
0.024768336 0.07707896 0.15164635 0.03350114 -0.0920181 -0.13143522 0.0230081 -0.059018865
0.06267868 0.041321557 -0.10869732 -0.14034171 0.06885824 0.046854638 -0.03063493 0.059805185
0.09976713 -0.1480789 -0.05719263 -0.0023343759 -3.7489226e-05 0.011744456 0.08110989 0.070736855
0.02319894 0.060081903 0.030147383 0.010021867 -0.017188134 -0.11382001 0.057905238 -0.05975041
0.09945535 -0.047254864 0.019895945 -0.10180923 -0.02959066 -0.016858054 0.10746318 -0.1394362
-0.03453336 -0.009797784 -0.01597409 0.0005507575 -0.06694602 -0.05932277 0.058268584 0.017785113
0.018197905 0.047449864 0.05009916 0.0465039 0.0509607 0.047656137 0.06330483 0.040899333
-0.0352336 -0.055490036 -0.033994783 -0.08111234 0.0066620964 0.0095494995 -0.019838097 -0.028279398
-0.094905324 -0.026442192 -0.0037666648 -0.08025502 -0.09222792 -0.012959279 -0.07491772 0.011844751
-0.09229399 0.048546195 0.047390047 -0.07202023 -0.064370714 -0.08212852 -0.08266098 0.026793245
-0.08536171 0.029043432 -0.034622636 -0.091560744 0.038526315 -0.04409583 -0.04520099 0.0029166471
-0.06510869 -0.079213515 -0.03040052 0.012271305 0.0035948153 -0.022415392 -0.04650448 -0.037381127
-0.08729595 -0.05835663 0.05083962 0.0102570895 0.013377173 0.07045446 -0.03174567 -0.089062445
-0.028196687 -0.032626346 0.0499659 -0.031800617 -0.08219268 -0.012776949 0.028334523 -0.06662213
0.042224694 -0.05794172 -0.02704047 0.06041487 0.0014665078 -0.018516215 0.015441559 0.04787834
-0.022569055 0.078072235 0.038105115 0.019551119 0.015603085 0.02677923 0.09562341 0.019092523
0.021705378 0.059498698 0.0112963915 0.06066623 -0.06484104 0.020082384 0.08611429 -0.033808127
0.10446739 0.017291648 0.05306753 -0.05589057 0.06960709 0.04932267 0.0906835 -0.008740711
0.012549192 -0.028798422 -0.06443954 -0.019105185 0.037621416 -0.09481793 0.009352775 -0.030777656
0.021098793 -0.013078291 -0.03923516 -0.12224724 -0.13078769 -0.012483439 -0.07252599 -0.053557202
00000000: e385 58bd 0127 f0bd 9c8c c4bc 28ae f8bd
00000010: cd12 28bd 2594 6f3a ea29 9abc 410f aa3d
00000020: 6c95 72bd ded3 1b3d bc13 8ebd b266 1b3e
00000030: e545 d93c 4b18 9a3d c9b6 cf3d f868 acbd
00000040: ea09 03be 8e27 203d f1f2 3e3c e970 98bd
00000050: 9439 b9bd 26fe 79bd ec6d b8bd 4692 573d
00000060: 7563 0ebd 743f 17be 0a92 68bb 7478 283d
00000070: 1e3c f6bb aa8a 9cbd 1e0a a63d e685 ba3d
00000080: b78d f83d 0511 abbd 261a b83d c19f a2bc
00000090: e51e dabd b625 84bd 4934 443c c5f3 ec3b
000000a0: 1aa2 943d fcbc c7bd 9d08 1ebd 152b dbbb
000000b0: 30da c43c 0c1a bb3d 1d7b ee3d 5c4f ce3d
000000c0: 87c4 90bd fec9 c4bb 533d 693d bca5 2b3c
000000d0: 5d53 623d 9814 e6bd 685c 7f3d 9018 56bd
000000e0: 01b9 7dbd 7227 d03d 12a5 90bd c28b 84bc
000000f0: 772f d5bc 02a8 88bd b11a 253d ffb2 343d
00000100: 7cf2 9b3a 4df3 443d cbb1 9dbd 27c5 d0bd
00000110: de80 60bc 2621 8a3d 8b56 0c3e 15e0 97bd
00000120: 4975 5ebc 38df d5bc a369 9c3d 1c85 eb3c
00000130: e1b8 ddbb d867 bc3d 92e9 e63d 38a4 4cbb
00000140: 0b79 0fbe eb53 b33c 911a 033d bdcc 77bd
00000150: bf61 5a3d fbb7 733d 4223 6a3d 1296 503d
00000160: d4aa a23d c4ce 2b3d ab6f bcbd f548 66bc
00000170: 3c62 feba 2352 16bd 4a7c a2bd f65a 86bd
00000180: f7e6 ca3c 93db 9d3d 2e49 1b3e 7e38 093d
00000190: fc73 bcbd f496 06be 7c7b bc3c c4bd 71bd
000001a0: ae5d 803d cb40 293d b39c debd bdb5 0fbe
000001b0: 8d05 8d3d a6ea 3f3d 1bf6 fabc 48f6 743d
000001c0: b652 cc3d ffa1 17be d242 6abd 54fc 18bb
000001d0: c03d 1db8 d26b 403c f11c a63d 7cde 903d
000001e0: b40b be3c 7118 763d a5f7 f63c c232 243c
000001f0: 21ce 8cbc 771a e9bd 0b2e 6d3d d9bc 74bd
00000200: 3faf cb3d 518e 41bd d2fc a23c 5c81 d0bd
00000210: 1d68 f2bc e719 8abc a815 dc3d 5dc8 0ebe
00000220: da72 0dbd e286 20bc 18dc 82bc b660 103a
00000230: ff1a 89bd 6ffc 72bd 0aab 6e3d 16b2 913c
00000240: c613 953c ca5a 423d c734 4d3d e07a 3e3d
00000250: 2bbc 503d 1533 433d f6a5 813d 0f86 273d
00000260: 1b51 10bd 8549 63bd 1d3e 0bbd 3a1e a6bd
00000270: b74d da3b 8175 1c3c 8183 a2bc 32aa e7bc
00000280: b95d c2bd 4c9d d8bc 26da 76bb be5c a4bd
00000290: fee1 bcbd 2853 54bc 766e 99bd 7d10 423c
000002a0: a204 bdbd 60d8 463d 111c 423d 587f 93bd
000002b0: cbd4 83bd ff32 a8bd 294a a9bd 827d db3c
000002c0: 1fd2 aebd 7eec ed3c 77d0 0dbd 3384 bbbd
000002d0: c5cd 1d3d d49d 34bd ac24 39bd 3825 3f3b
000002e0: b457 85bd b23a a2bd 830a f9bc 950d 493c
000002f0: fe96 6b3b 7ca0 b7bc 7b7b 3ebd f41c 19bd
00000300: 38c8 b2bd 5d07 6fbd 353d 503d 5a0d 283c
00000310: ee2b 5b3c 6e4a 903d bf07 02bd 5f66 b6bd
00000320: bdfc e6bc 34a3 05bd 0ba9 4c3d 5d41 02bd
00000330: a354 a8bd 6956 51bc cd1d e83c 2f71 88bd
00000340: cdf3 2c3d 4c54 6dbd fa83 ddbc 9575 773d
00000350: d637 c03a 51af 97bc 98fe 7c3c 141c 443d
00000360: bde2 b8bc 56e4 9f3d 1c14 1c3d ab29 a03c
00000370: 15a4 7f3c 1e60 db3c 35d6 c33d ec67 9c3c
00000380: 7acf b13c e8b4 733d 8014 393c 277d 783d
00000390: 61cb 84bd d083 a43c b05c b03d 647a 0abd
000003a0: 00f3 d53d 37a7 8d3c 575d 593d 83ed 64bd
000003b0: 298e 8e3d 9106 4a3d 45b8 b93d 3335 0fbc
000003c0: 209b 4d3c abea ebbc e1f8 83bd 7a82 9cbc
000003d0: ea18 1a3d e72f c2bd 623c 193c 6c21 fcbc
000003e0: 60d7 ac3c 5446 56bc 0cb5 20bd c35c fabd
000003f0: 35ed 05be 5787 4cbc 8288 94bd cc5e 5bbd

fc2.bias f4 [84]
0.20035915 0.08393488 0.056827765 -0.12668583 0.3199817 0.058970463 0.25564712 0.21728338
-0.0012719107 -0.04738874 0.063926846 0.08296607 0.24484757 0.16289759 0.09890305 0.08817939
0.18804032 0.15307477 -0.071079895 -0.047842074 0.037871283 -0.11472239 0.066370085 0.06208636
-0.075189605 -0.096984826 -0.051803075 -0.0316979 0.27179214 0.20368394 -0.05374515 -0.08192684
-0.08604421 -0.0020837612 -0.015295608 0.015329011 -0.029761748 0.11125065 -0.21834806 0.05818688
0.072496615 -0.07504412 -0.05536267 -0.08278152 0.05274682 -0.0064090276 0.3156276 -0.019288288
0.40276048 -0.029349498 0.3242003 0.09495014 0.083949365 0.02982296 -0.026075063 0.26595533
-0.23103073 -0.09505187 -0.03538261 0.11009249 0.22417897 -0.1588105 0.3383029 0.053697195
-0.058885034 0.23448813 0.22217573 0.034499887 0.02062798 0.1203533 -0.059717663 -0.008090928
-0.0754107 0.2156468 0.13413803 0.013935334 -0.04498264 0.0817194 0.01844608 0.03133804
0.27415133 0.002528115 0.09879923 -0.048025504
00000000: f32a 4d3e 0de6 ab3d 3bc4 683d eeb9 01be
00000010: a4d4 a33e 038b 713d 2ee4 823e 897f 5e3e
00000020: 3eb6 a6ba b21a 42bd 14ec 823d 1dea a93d
00000030: 52b9 7a3e a0ce 263e af8d ca3d 6597 b43d
00000040: a48d 403e a2bf 1c3e 5692 91bd 0df6 43bd
00000050: eb1e 1b3d 93f3 eabd 0aed 873d 444e 7e3d
00000060: 02fd 99bd fb9f c6bd 762f 54bd a8d5 01bd
00000070: 5728 8b3e 8692 503e e023 5cbd 42c9 a7bd
00000080: f237 b0bd b68f 08bb 6e9a 7abc 8826 7b3c
00000090: e9ce f3bc 61d7 e33d a296 5fbe 5e55 6e3d
000000a0: 1b79 943d bbb0 99bd f8c3 62bd 5c89 a9bd
000000b0: 0d0d 583d d202 d2bb f199 a13e 7902 9ebc
000000c0: 9f36 ce3e 5c6e f0bc 95fd a53e 3875 c23d
000000d0: a5ed ab3d 484f f43c 5f9b d5bc 4c2b 883e
000000e0: 5293 6cbe 8eaa c2bd 5bed 10bd 2c78 e13d
000000f0: 2c8f 653e 389f 22be 0a36 ad3e 97f1 5b3d
00000100: 6f31 71bd a81d 703e 0982 633e c14f 0d3d
00000110: 02fc a83c ca7b f63d 829a 74bd d08f 04bc
00000120: ed70 9abd 84d2 5c3e 7b5b 093e 0751 643c
00000130: b73f 38bd 805c a73d 3c1c 973c 515c 003d
00000140: 905d 8c3e bbae 253b 4057 ca3d 64b6 44bd

fc3.weight f4 [10, 84]
-0.11794418 0.03623146 -0.10872249 -0.007717193 0.26330593 0.0557266 0.13246389 -0.060341608
0.057447508 -0.018032206 -0.058347665 0.13768108 -0.14897133 0.28937307 -0.0399572 0.1390026
-0.06836042 -0.0872866 -0.009982654 0.06597807 -0.058458142 -0.022520931 0.064542815 -0.031570848
-0.03803309 0.08150512 -0.09608183 0.047468316 -0.24166107 -0.20034553 0.034258127 0.08037685
0.02367085 0.016135544 -0.011676197 0.085458025 0.013178663 0.16375455 0.18018298 0.016510645
0.09394849 0.10659152 -0.07682702 -0.035852857 0.2421763 -0.19311528 -0.14521445 0.016942065
0.35344547 0.07431238 -0.36376724 0.1467211 -0.102865994 -0.1981368 0.20960979 0.17801104
0.06045325 -0.09288839 -0.09880206 -0.006091812 -0.25926143 0.052883375 -0.14483304 0.036435205
0.15392934 0.055173263 0.05400333 0.013645462 0.07773932 0.36102876 0.10216812 -0.0932538
0.057234727 -0.062670976 -0.13335976 -0.04531808 -0.08971787 0.059473217 -0.050621748 -0.0024641333
-0.18359774 -0.10899357 -0.14226818 0.122132905 -0.08350584 0.12880038 0.19007953 0.19430271
-0.13524945 -0.15799981 -0.2395385 -0.20722108 0.026583826 0.055702426 0.037199546 0.035315413
-0.23861419 -0.011255727 0.17161764 -0.09296703 -0.20968063 0.10674208 -0.07555229 0.09502221
-0.081565075 0.11374873 0.14191803 -0.11418389 0.04554146 0.01562741 0.025371589 0.09183907
-0.002627511 -0.03249082 0.017278025 0.003959693 0.019752873 0.25568953 0.036659222 0.3183069
0.11206513 -0.16783202 0.1362523 -0.17102195 0.011038202 -0.052431054 -0.06393655 0.06617069
0.1835228 0.2921912 -0.34375533 -0.024974149 -0.1064368 0.1488257 -0.0878752 0.022773398
0.15179867 -0.117678426 -0.0614384 0.18175079 0.11763248 0.09158835 0.010965141 -0.100632526
-0.16547713 0.008958211 -0.22750434 0.2274284 0.33741072 -0.2930473 -0.0032514122 -0.013839987
-0.046827003 -0.21214072 0.21342401 0.09121323 0.071661 -0.05354244 -0.15561171 0.055671755
-0.0046083275 0.09051376 0.06597457 -0.0982438 -0.13226196 0.038583964 0.05425559 0.016707286
-0.062476255 -0.03905755 0.07037035 0.06862957 0.2630653 -0.17968147 -0.016724952 0.011691681
0.18032272 0.07598341 0.0003247128 0.0195368 -0.02482245 0.07734367 -0.09307733 0.045989763
0.31253415 -0.006280292 -0.09937599 0.0011158488 0.029024452 -0.16084889 -0.06146494 0.08977567
0.060124643 -0.075006224 0.08670191 -0.13100657 0.12911421 0.0013553416 0.03751482 0.09934217
0.096760675 0.091430806 0.04594361 -0.22925474 -0.073396884 0.19148105 0.032310065 -0.11330853
-0.0764604 0.04220469 0.08694507 0.016102953 -0.24550147 -0.13945596 0.12146793 -0.032329317
0.12474942 0.14390607 0.11966068 -0.14529192 0.08665297 0.121705845 -0.11136107 -0.19831367
-0.10069976 -0.061635245 0.15109296 -0.06735909 0.0806347 -0.14420794 0.2540705 -0.0879499
-0.0873479 0.35209566 0.004008425 -0.02306854 0.09496276 0.04460674 0.016699577 -0.086426735
-0.044397775 0.08434543 -0.06208299 0.080522135 0.012096509 0.12681884 -0.06676398 -0.0064762277
0.068102874 -0.1114173 -0.08183124 -0.030458737 0.2126513 0.03394044 0.09126385 0.14801979
00000000: b88c f1bd 7067 143d e6a9 debd 82e0 fcbb
00000010: 09d0 863e 9341 643d 9da4 073e c328 77bd
00000020: 144e 6b3d 47b8 93bc f6fd 6ebd 45fc 0c3e
00000030: f18b 18be b528 943e 29aa 23bd b356 0e3e
00000040: 8c00 8cbd 51c3 b2bd 498e 23bc 831f 873d
00000050: ce71 6fbd d17d b8bc 062f 843d 6f50 01bd
00000060: 96c8 1bbd 28ec a63d 8dc6 c4bd 236e 423d
00000070: 0076 77be 6127 4dbe 4052 0c3d 9e9c a43d
00000080: 5fe9 c13c b02e 843c 854d 3fbc 9e04 af3d
00000090: 52eb 573c 46af 273e e381 383e 5541 873c
000000a0: 1168 c03d a84c da3d 7c57 9dbd 72da 12bd
000000b0: 10fd 773e 03c0 45be 19b3 14be 16ca 8a3c
000000c0: cef6 b43e 1731 983d b33f babe 0e3e 163e
000000d0: 68ab d2bd 60e4 4abe f3a3 563e 8748 363e
000000e0: d49d 773d 453c bebd bc58 cabd d39d c7bb
000000f0: eabd 84be 3d9c 583d 1d4f 14be 153d 153d
00000100: a79f 1d3e 5cfd 613d 9932 5d3d 3791 5f3c
00000110: cb35 9f3d c3d8 b83e 853d d13d d9fb bebd
00000120: f66e 6a3d a459 80bd 768f 08be 739f 39bd
00000130: 01be b7bd 309a 733d c058 4fbd 4c7d 21bb
00000140: 0c01 3cbe 0538 dfbd c0ae 11be d120 fa3d
00000150: 1c05 abbd 3fe4 033e 35a4 423e 4af7 463e
00000160: d57e 0abe b4ca 21be 9549 75be c331 54be
00000170: 53c6 d93c 3a28 643d 8d5e 183d e5a6 103d
00000180: 4757 74be f169 38bc 89bc 2f3e 8065 bebd
00000190: 85b6 56be 979b da3d 29bb 9abd 019b c23d
000001a0: 970b a7bd 18f5 e83d f652 113e 3ed9 e9bd
000001b0: af89 3a3d 0e05 803c 14d8 cf3c 1f16 bc3d
000001c0: 5232 2cbb 1815 05bd a58a 8d3c 50c0 813b
000001d0: c7d0 a13c bde9 823e fb27 163d 1ff9 a23e
000001e0: 6782 e53d 28dc 2bbe b985 0b3e 6120 2fbe
000001f0: 93d9 343c f2c1 56bd 2af1 82bd 8084 873d
00000200: 67ed 3b3e 169a 953e b300 b0be 9696 ccbc
00000210: 89fb d9bd c465 183e eaf7 b3bd 478f ba3c
00000220: 1c71 1b3e 6301 f1bd d5a6 7bbd e11c 3a3e
00000230: 4ce9 f03d ac92 bb3d 22a7 333c 6d18 cebd
00000240: d672 29be 76c5 123c e6f6 68be fee2 683e
00000250: 19c1 ac3e 4c0a 96be a515 55bb 1dc1 62bc
00000260: accd 3fbd 6b3b 59be d38b 5a3e 00ce ba3d
00000270: 01c3 923d 514f 5bbd ad58 1fbe 1108 643d
00000280: 7401 97bb 475f b93d ad1d 873d 0c34 c9bd
00000290: ae6f 07be 380a 1e3d 1c3b 5e3d b8dd 883c
000002a0: 1ae7 7fbd cffa 1fbd 541e 903d a98d 8c3d
000002b0: 7fb0 863e 6bfe 37be c402 89bc 778e 3f3c
000002c0: 85a6 383e 319d 9b3d 373e aa39 a40b a03c
000002d0: 7358 cbbc 5c66 9e3d 549f bebd c35f 3c3d
000002e0: 7a04 a03e e8ca cdbb a485 cbbd ac41 923a
000002f0: b0c4 ed3c 92b5 24be a9c2 7bbd 4edc b73d
00000300: 4245 763d dd9c 99bd c590 b13d 9626 06be
00000310: 8436 043e b8a5 b13a 24a9 193d e873 cb3d
00000320: 762a c63d 1340 bb3d 5e2f 3c3d c1c1 6abe
00000330: 1b51 96bd 9c13 443e 8f57 043d 4d0e e8bd
00000340: 4597 9cbd d3de 2c3d 4210 b23d 57ea 833c
00000350: bd64 7bbe 8bcd 0ebe 2ec4 f83d bf6b 04bd
00000360: a07c ff3d 1d5c 133e a910 f53d 68c7 14be
00000370: 1d77 b13d ea40 f93d 4611 e4bd bd12 4bbe
00000380: ad3b cebd 3d75 7cbd 1db8 1a3e 90f3 89bd
00000390: ce23 a53d 3fab 13be 8715 823e 141f b4bd
000003a0: 75e3 b2bd e245 b43e 1b59 833b 3cfa bcbc
000003b0: d67b c23d 8fb5 363d 8dcd 883c 8000 b1bd
000003c0: 71da 35bd 4cbd ac3d bc4a 7ebd cae8 a43d
000003d0: 7030 463c ccdc 013e 8ebb 88bd 8936 d4bb
000003e0: 8579 8b3d c12e e4bd 2397 a7bd 9a84 f9bc
000003f0: 43c1 593e 2105 0b3d 8be8 ba3d 8092 173e

fc3.bias f4 [10]
-0.20006305 -0.6241209 0.25302014 0.35624257 0.50097734 -0.14958039 0.07552026 -0.32445496
0.3791997 -0.4115558
00000000: 54dd 4cbe 63c6 1fbf db8b 813e 6d65 b63e
00000010: 0d40 003f 9a2b 19be 5eaa 9a3d f61e a6be
00000020: 7726 c23e 71b7 d2be
