cifar_net.pth (torch_old, 268603 bytes, 10 tensors)

conv1.weight f4 [16, 3, 5, 5]
000000 8b 4f 7d bd 2f 77 5e bb 22 08 87 bd 4c a3 d6 bd
       -0.061843436 -0.003394555 -0.06593348 -0.10480365
000010 fd 37 98 bd 51 5c 51 bd 33 8b 38 be 17 ee 40 be
       -0.07432554 -0.05111343 -0.1802185 -0.18840824
000020 a3 27 59 be 8a 0c 61 be 0a bd 98 3d 20 72 b9 bd
       -0.21206526 -0.2197744 0.07457931 -0.09054971
000030 78 80 36 3d 5d 5b 35 bd 6c 75 01 be af eb 2c 3d
       0.04455611 -0.044276584 -0.12642449 0.042216953
000040 15 16 af bd cf 82 23 bd 97 82 2e 3d 61 35 12 3c
       -0.08549134 -0.03991967 0.04260501 0.008923859
000050 dd be 3e bd 07 cc fb bd bd 11 0c be 9c 55 ce bd
       -0.04656874 -0.122947745 -0.13678642 -0.100749224
000060 5b 88 23 be 77 d1 bb bd 06 07 41 bd 22 d3 b2 bd
       -0.15969984 -0.091708116 -0.04712584 -0.08731677
000070 30 c6 da 3c 61 96 b1 bd dc 00 c6 3c c7 1e c9 bd
       0.026705831 -0.086712606 0.024170332 -0.098203234
000080 e7 45 07 be 18 1a b1 bd 15 1f ab bd 9c 8d 24 3a
       -0.1321026 -0.08647555 -0.08355538 0.0006277205
000090 cc 7d 1a 3d eb 2c 1d 3e 9e 43 6f 3d 44 d7 e8 3c
       0.037717625 0.15349166 0.058414094 0.02842296
0000a0 e7 57 07 bc f5 26 e0 3c bf 1b 38 3d 0d 1d a8 3d
       -0.008260704 0.027362326 0.044948336 0.08208666
0000b0 5c e1 25 bc 84 89 a7 bd 71 ea f1 bd eb 94 e1 bd
       -0.010124531 -0.08180526 -0.11812294 -0.11014732
0000c0 6c 42 3f be 28 78 2e bd e5 2e 08 3e 51 70 44 3d
       -0.18677682 -0.04259506 0.13299139 0.047958676
0000d0 01 c2 58 bc 77 f4 e6 3d 02 ed 30 3d 06 63 fd 3d
       -0.013229848 0.11277097 0.04319478 0.12372403
0000e0 4a 1c d4 3d 58 20 0d 3e 0c 38 62 bd f0 23 15 3d
       0.10356958 0.1378187 -0.05522923 0.036411226
0000f0 b7 03 64 3e 5d 05 89 3e 57 b4 70 3e b5 fe 4d 3e
       0.22267042 0.26761904 0.23506294 0.20116694
000100 c7 9f 70 3e 4a 24 37 3e 31 ae 59 3e d3 31 72 3e
       0.2349845 0.17884937 0.21257855 0.23651819
000110 18 e3 ce 3d 8e 25 97 3d c8 86 3a 3d ee e9 09 3e
       0.101019084 0.0738021 0.045538694 0.13468143
000120 41 42 c8 3d e0 b4 55 3d 8b 0f 09 be fc d9 d0 bd
       0.09778262 0.05217445 -0.13384835 -0.10197827
000130 d3 b5 2c 3e 36 38 38 3e 69 23 27 3d d9 09 01 be
       0.16866235 0.17990193 0.040805254 -0.12601413
000140 97 f5 66 be 6e 1a 0c be 3e dc 3b be 4b 42 22 be
       -0.22554623 -0.13681957 -0.18345734 -0.15845601
000150 0e 6a ee bd bf b2 97 be c2 7b 9a be 61 01 92 be
       -0.11641322 -0.2962856 -0.30172545 -0.28516677
000160 50 43 be be 79 7f 52 be 69 6c 00 3e fd 93 a8 bc
       -0.3716073 -0.2055644 0.12541355 -0.020578379
000170 c3 a1 82 bd 52 1e 9a 3c 41 f4 0e 3e 20 71 9c 3e
       -0.0637851 0.018813286 0.13960363 0.30555058
000180 11 68 db 3e b0 84 bd 3e 5c 09 b2 3e 68 54 19 3e
       0.42852834 0.37015295 0.34772766 0.14973605
000190 58 49 c0 3d 44 2f 36 3e c9 f4 0c 3e 39 3e 9f 3d
       0.09388989 0.17791468 0.13765253 0.0777554
0001a0 32 1c 77 3d 10 b0 42 3d e2 91 b8 3d 5e 55 4a 3d
       0.060329624 0.047531188 0.090122 0.04939782
0001b0 5c b7 90 bd 3e 99 15 bd 47 34 82 be 73 63 a4 be
       -0.07066223 -0.036523096 -0.2543051 -0.32107124
0001c0 9c d5 9b be 85 7c 6a be 58 fe 14 bd 7a d7 1f 3d
       -0.3043641 -0.22899063 -0.036375374 0.039023854
0001d0 ed ae c4 bd 4f 64 71 bc 66 e8 10 3e 9b 68 39 bd
       -0.09603677 -0.014733388 0.14151153 -0.045265775
0001e0 27 9c f8 3d bd fe 33 3e c0 aa aa 3e 1f 1d 6a 3e
       0.12139159 0.17577644 0.33333397 0.22862671
0001f0 57 87 0d 3d 28 d1 fe 3d 89 13 23 bc d4 90 7b 3e
       0.0345529 0.12442237 -0.009953388 0.24566966
000200 84 48 06 3e cb 54 16 3e 94 17 74 3d 2f 5d 20 3d
       0.131136 0.14680783 0.0595928 0.039151367
000210 3d 2e 33 3e 31 3d 28 bd 96 a8 2d 3e 81 09 ee bd
       0.17498107 -0.04107398 0.16958842 -0.116229065
000220 f1 5a 0b be db 2a 69 be 8d c9 0f be e5 22 a5 bd
       -0.1360891 -0.22770254 -0.1404173 -0.08063296
000230 8d 08 13 be aa c1 14 3d d6 b0 b7 bd 32 b6 9e bd
       -0.1435873 0.036317505 -0.08969276 -0.07749595
000240 a0 1a 04 bd 55 9d 4a 3c 6a 76 67 3d 82 c7 8a 3c
       -0.032251954 0.012366612 0.056509413 0.016940836
000250 22 45 b4 3c af d2 de 3c f1 49 7e 3d 25 ed a7 3e
       0.022005621 0.027200071 0.062082235 0.32798114
000260 11 18 a6 3e be a9 1e 3e 1f f1 d8 bd e3 03 59 3e
       0.32440236 0.15494439 -0.10592865 0.21192889
000270 d9 85 91 3e 37 24 0b 3d bb e2 05 be b2 3a 17 bd
       0.2842243 0.033970084 -0.13074772 -0.03692121
000280 85 e3 7f 3e 38 58 90 bd 8d 61 e8 bd 6e aa 05 be
       0.24989136 -0.070480764 -0.11346731 -0.13053295
000290 b9 e7 b2 bc 27 55 09 be 81 5f 1a be 8a d8 55 be
       -0.02183901 -0.1341139 -0.15075494 -0.20883384
0002a0 e3 a4 a2 ba 98 85 94 bb 4e f0 67 be c3 68 46 be
       -0.0012408759 -0.004532527 -0.22650263 -0.19375901
0002b0 a4 ba 1e be 98 e2 4e bd 21 44 08 3e e1 79 4f bd
       -0.15500885 -0.050509065 0.13307239 -0.050653342
0002c0 ff aa 88 bd 27 c4 5e bd cc 12 cf bd ce b1 85 be
       -0.0667324 -0.054386284 -0.10111007 -0.26112217
0002d0 2d be 3c 3d a0 fd 63 bd 8e 9b 40 be 10 55 ba be
       0.046079803 -0.055661798 -0.1880934 -0.36393023
0002e0 fe 4f ad be 9f fb 22 3d 98 06 49 be 80 7d 80 be
       -0.33850092 0.039790746 -0.19631422 -0.2509575
0002f0 9c e7 99 be 97 2b 05 bd e9 04 38 be f9 60 9c be
       -0.30059516 -0.032512274 -0.17970623 -0.30542734
000300 bc ba a3 be 9b f7 32 be 26 0d 3d 3e 59 22 00 be
       -0.31978405 -0.17477266 0.18462047 -0.12513103
000310 01 7c 0e 3c 37 28 9e 3d 72 45 6f 3e 0c 8f 0d 3e
       0.008696557 0.07722514 0.23366335 0.138241
000320 62 71 a4 bd 76 2b 81 bb dc 27 13 3e fd 70 0c 3d
       -0.080294386 -0.0039419485 0.14370674 0.03428744
000330 20 7c 32 3b 56 c2 51 3d 6c be 59 3e 9d 86 0e bd
       0.0027234629 0.051210724 0.21264046 -0.034796346
000340 35 53 4c be 04 d3 0a be 1d d4 34 3d 5c dd b9 3d
       -0.19953616 -0.13557059 0.0441476 0.09075424
000350 d6 10 02 be 7f 44 a0 bb 21 66 ad 3d 78 04 d6 3c
       -0.12701735 -0.004890978 0.08466745 0.026125178
000360 8e 55 83 bd 81 38 d8 bd fb fa a1 bc 80 c3 a7 3e
       -0.06412803 -0.10557652 -0.019772997 0.32766342
000370 77 c6 05 3e 65 ed 74 bd 6b 55 18 3d 2b 11 8f 3e
       0.1306399 -0.05979671 0.037190836 0.27942786
000380 18 69 c1 3e db a9 1b 3d 09 d5 7f 3d e1 f4 7f bd
       0.37775493 0.038003784 0.062459026 -0.062489394
000390 97 ad 57 3a 2d 8c 95 3d af b3 0a bd 2e 03 23 bc
       0.0008227466 0.07302127 -0.033862766 -0.009949489
0003a0 81 4c 4c bd b4 6e 1a bc 5c e7 26 3c f7 68 72 bd
       -0.049877647 -0.009425808 0.010186996 -0.059182134
0003b0 75 8a 68 bd 51 d0 33 3d a5 02 12 bd aa 57 e9 3b
       -0.056772668 0.043899838 -0.035647053 0.007121046
0003c0 7b 06 3b 3d a3 fe b5 3d 1a 07 7a 3d a7 bb 79 bc
       0.045660477 0.08886459 0.06104193 -0.015242494
0003d0 b6 91 20 bd 01 ca 99 bd eb 74 c5 3c 92 90 ce bc
       -0.03920146 -0.07509232 0.024103602 -0.02521542
0003e0 d1 08 be bd 7e 4c 8c 3d 0f 09 15 be 02 a8 39 be
       -0.09279025 0.06850527 -0.14554237 -0.18130496
0003f0 f3 cb 54 be f9 83 1d be 4a f8 66 bc aa af 75 3c
       -0.20780925 -0.15382375 -0.014097283 0.014995495

conv1.bias f4 [16]
000000 99 22 99 bd 0c ec 2a be f4 f2 d3 be a4 10 c2 be
       -0.07477302 -0.16691607 -0.41396296 -0.3790332
000010 72 f7 f0 bd 3e d5 0f be fe 99 90 be 06 34 ed bc
       -0.117659464 -0.14046189 -0.28242487 -0.02895547
000020 34 f0 bb be bb a2 8e be 65 cc b3 be 83 3a 89 be
       -0.36706698 -0.27858528 -0.35116878 -0.26802453
000030 56 fa 70 3e df 33 e7 be 28 a8 4f be 51 03 7d be
       0.23532996 -0.45156762 -0.2027899 -0.24708296

conv2.weight f4 [16, 16, 5, 5]
000000 27 15 3e bc d1 24 4c 3d 83 41 f6 3d e8 03 0d 3e
       -0.011601723 0.0498398 0.12024214 0.13771021
000010 f9 9f 28 3e d8 31 05 bd b7 db 8a bb 5b af f1 3d
       0.16467275 -0.032518238 -0.004237618 0.118010245
000020 99 0c 1c 3e 6e b0 a6 3d 09 5e 20 be da df 32 bd
       0.1523918 0.0813912 -0.15660872 -0.043670513
000030 b2 3c 2d bd 16 ea 8d 3d f6 8e 25 3d 89 74 b5 bd
       -0.04229421 0.06929414 0.04041954 -0.08860118
000040 8a d7 7d bc 99 38 cd 3c 04 47 20 3d 4c 19 9f bb
       -0.015493283 0.025051402 0.039130226 -0.0048553105
000050 a7 65 cf bd a2 a3 19 bd 34 20 ec 3c 01 c3 cd 3d
       -0.101268105 -0.037509568 0.02882395 0.1004696
000060 cf c7 1d 3c ca 21 74 bd 5b d0 f2 bd dd 6b d5 bc
       0.009630158 -0.059602536 -0.11856147 -0.02605241
000070 fb d6 a0 3d 6e 80 43 3e b9 5b a6 bd ed a1 13 be
       0.07853504 0.19091961 -0.081229635 -0.14417239
000080 3e 26 b9 bd a4 c0 a3 3d 56 0c e3 3d 8d 0d 38 bc
       -0.09040497 0.07995728 0.11086337 -0.0112336995
000090 51 31 a2 bd 2d ed 1e be ff 20 6f bd 46 79 ab 3d
       -0.079195626 -0.15520163 -0.058381077 0.083727404
0000a0 2c c5 bf bc b3 41 f3 bc 73 03 d4 bc ca 5d 01 bc
       -0.023409449 -0.029694414 -0.025880551 -0.007895896
0000b0 09 97 5f 3d fb 06 fc 3b 10 7d 63 3c 5f e7 cb 3d
       0.054587398 0.007691262 0.013884798 0.0995624
0000c0 fb c0 fc 3d 76 64 3a 3e 2b 78 e9 3d a9 dd aa 3d
       0.123414956 0.18202385 0.11399873 0.083430596
0000d0 20 7b cb 3d 22 86 cd bd 5b af 1e be 68 97 27 bc
       0.099355936 -0.100353494 -0.1549658 -0.010228969
0000e0 89 e7 3e 3e 33 ab 85 bd 11 2c 63 bd 69 c3 6e bd
       0.18643011 -0.06526794 -0.055461947 -0.058291826
0000f0 92 8b 15 3d f0 83 03 3e a0 a1 26 3c 2a df 58 3d
       0.036510058 0.12843299 0.01017037 0.0529472
000100 88 6b 07 be 5e ac dc 3c 55 1f 98 3c af 32 0e bd
       -0.13224614 0.02693766 0.018569628 -0.034716304
000110 2d 73 15 3d cf cf 5b bd 61 78 c3 bd bb ac 59 bd
       0.036486793 -0.05366498 -0.09544445 -0.053143244
000120 8a 55 1a bc b9 d3 28 ba ec fc 3a bd 8d cd 0f 3d
       -0.009419808 -0.00064402405 -0.04565136 0.035108138
000130 80 d4 3e 3d 2c e8 3e 3d 3d 69 0e 3e 6b f3 0b 3e
       0.046589375 0.046608135 0.13907333 0.13667075
000140 0e 39 22 be b1 ba ec bd 9c d4 2c bd 75 81 38 3d
       -0.15842077 -0.11559046 -0.042194948 0.045045335
000150 85 fa 6b bc 02 6a c7 bd 53 71 e7 bd 56 7c bd bd
       -0.01440299 -0.09737016 -0.11300912 -0.09252231
000160 b2 18 82 ba e7 40 06 bc 05 25 2a bd 68 d5 95 bd
       -0.0009925573 -0.008194185 -0.04153921 -0.07316095
000170 2b 11 52 3c 92 75 0c 3c c3 7f 40 3d 7f bd 5b 3d
       0.012821476 0.008572953 0.046996843 0.053647514
000180 fb 93 18 bd 3a 2f 13 bd 10 22 10 3d bf f7 ac 3c
       -0.0372505 -0.03593371 0.035188735 0.021114228
000190 53 0f 27 bb 11 2d 9f 3d 59 6c 28 3c ae b2 ed bd
       -0.0025491312 0.077722676 0.010279738 -0.11606346
0001a0 30 f9 74 bd ea e5 a8 3c d4 81 93 3d e6 b2 95 bb
       -0.059807956 0.020617444 0.07202497 -0.0045684455
0001b0 52 84 56 bd 07 33 8d bd 36 7d ee bc 07 a6 d5 3c
       -0.052372284 -0.06894498 -0.02911244 0.026080145
0001c0 eb b5 70 3b 2b ce 9f bc 65 d2 19 be c1 b2 a3 bd
       0.0036729525 -0.019507488 -0.15021665 -0.07993079
0001d0 bb d9 9b bd 45 a5 70 bd 99 41 f1 bd e1 5b 05 be
       -0.07609888 -0.058751363 -0.1178009 -0.1302333
0001e0 70 5d 0a bd c6 bc 8f bd 92 f8 27 3d 1a 46 42 bd
       -0.033780515 -0.070184276 0.04100854 -0.047430135
0001f0 29 52 ea bc d3 42 fa 3d c5 51 30 3e 93 af b0 bd
       -0.02860363 0.12219777 0.17218693 -0.08627238
000200 97 8b fb bd 37 0c de bd 68 eb 41 3e d2 51 1d 3e
       -0.12282484 -0.108421735 0.18937457 0.15363243
000210 6c a2 4d 3c 61 d4 14 be 89 eb 8c bd b1 8c 93 3e
       0.012550931 -0.14534141 -0.06880862 0.28818277
000220 1a b7 a4 3d 1e 2b 66 3e f5 3d 9b bd 84 de 04 3c
       0.08042736 0.22477385 -0.07580177 0.0081096925
000230 6b ab 45 3e 43 d1 c0 bc f5 36 06 3e 1b 27 1e be
       0.19303672 -0.023537284 0.13106902 -0.15444605
000240 7f 79 93 bd 1b aa da 3c fd aa 1a be 75 98 d8 3b
       -0.07200908 0.02669244 -0.1510429 0.006609971
000250 3e e0 92 be 11 ab 84 be e5 09 bf bd 0b 24 38 bd
       -0.28686708 -0.25911763 -0.09328059 -0.04495625
000260 42 b1 bf 3d b7 7c d4 3d 15 07 8f bc 95 5b 9e bd
       0.09359981 0.1037535 -0.017459432 -0.07732312
000270 10 87 98 bd e2 f4 26 3e 3e 59 c8 3d 06 cc 24 bd
       -0.07447636 0.16304353 0.097826466 -0.040233634
000280 c9 5a b9 bd b5 36 c5 bc be 9b 01 3e 81 04 ed bb
       -0.09050519 -0.024073938 0.12657067 -0.007233203
000290 c3 f1 90 bd 32 23 cf bd 4a 05 11 3d 3c 9a 4e 3d
       -0.070773624 -0.10114135 0.035405435 0.050440058
0002a0 e2 de 67 bd 0f 64 16 be 8a 7b bd bd c9 1e 02 3d
       -0.056609042 -0.14686607 -0.09252079 0.03176764
0002b0 c4 e5 95 bd e1 74 31 bd e8 0a 76 be 4a 53 e4 3c
       -0.07319215 -0.043324355 -0.24027598 0.027871747
0002c0 ae be b1 3b 7e 56 c2 bb 31 35 e7 bd af d8 46 bd
       0.005424342 -0.005930721 -0.11289442 -0.04854649
0002d0 9e 3e e0 bd 56 c9 5f 3d e4 22 a2 bd 43 69 75 bc
       -0.10949443 0.05463537 -0.07916811 -0.01497871
0002e0 28 e7 71 bd 58 c3 2b bd 1b 40 92 3d 57 78 3d bd
       -0.05905834 -0.04193434 0.071411334 -0.046257343
0002f0 60 0c 8a bc ba 52 bb bc 05 36 08 bd 00 2c f8 3c
       -0.016851604 -0.022866596 -0.033254642 0.030294418
000300 17 51 64 bd 00 70 b6 3b a6 18 31 bb ed f7 c6 bc
       -0.055741396 0.0055675507 -0.0027022748 -0.024288142
000310 4a e1 d7 bd 38 3b cd 3c c1 49 b6 bc 2b a3 aa bd
       -0.10541017 0.025052652 -0.022251965 -0.08331903
000320 f2 4c 48 3e 9e a3 be 3b 4f 09 04 3e 6b aa 65 3d
       0.19560602 0.0058178445 0.12894176 0.056070726
000330 0c 57 aa bd e1 1d 74 3d 7b ea 3a bd 37 e3 23 3d
       -0.08317384 0.059598807 -0.045633774 0.04001161
000340 d0 02 49 bd 93 96 20 be fb f8 ca 3d 26 26 61 3d
       -0.049074948 -0.1568244 0.099107705 0.05496802
000350 2b 59 0c 3e cd 39 b2 3b 91 36 33 bd bc b0 c9 3c
       0.1370589 0.0054390193 -0.04375321 0.024620406
000360 92 73 ef 3d 30 b4 ce 3d b9 d3 be 3d 43 44 11 bd
       0.11691965 0.10092962 0.09317727 -0.03546549
000370 df 5c e2 bd 44 41 a8 3d 5a 92 0b bc 8d 4b 6b bd
       -0.1105287 0.082155734 -0.00851878 -0.057445098
000380 f7 55 d7 bd e2 1f e8 3d 1e 78 0c 3e fb d6 be 3c
       -0.10514443 0.11334206 0.13717696 0.02329587
000390 97 d5 61 bd 3e b4 af 3d 7a 7d ee 3d 05 16 33 3c
       -0.055135336 0.085793 0.116450265 0.010930543
0003a0 cb 66 1b 3d 37 13 f6 bb a3 f0 7a bd 1f c2 28 3e
       0.037939828 -0.007509615 -0.061264645 0.16480301
0003b0 96 b6 08 bd de b9 cd 3c 08 bd f9 bb a3 14 03 be
       -0.033377253 0.025113042 -0.0076214112 -0.12800841
0003c0 d1 63 23 3e 20 c4 8e bd 33 fb 74 bc 2d 22 b4 bd
       0.15956046 -0.069710016 -0.014952469 -0.08795581
0003d0 d0 a6 16 be 19 b0 c0 3d fc f7 40 bd a5 5d 37 bd
       -0.14712071 0.09408588 -0.047111496 -0.04476704
0003e0 ee cd 09 be 98 16 60 be cb a8 2e bd 95 7c 47 3d
       -0.13457462 -0.21883619 -0.042641442 0.048702795
0003f0 d3 e1 d6 3c fc 80 f1 3d 7e 53 47 3d 78 fe 30 bd
       0.026230728 0.1179218 0.04866361 -0.04321143

conv2.bias f4 [16]
000000 1b b7 11 bf 5d ab 76 3f f1 5f da bd 4e 2b 1a 3d
       -0.5692002 0.9635523 -0.106628306 0.037638955
000010 c4 11 54 be 72 54 ef 3d 18 08 84 bc 50 42 c0 3e
       -0.20709902 0.116860285 -0.01611714 0.37550592
000020 0b 27 e8 3e 7f aa 01 bf 35 2a 7d 3e 08 8b fc 3d
       0.45342287 -0.5065078 0.24723132 0.123312056
000030 b8 3f 0d bf 15 65 89 3e 2f db 04 3f d9 ea 28 3d
       -0.5517535 0.26834932 0.5189695 0.041239593

fc1.weight f4 [120, 400]
000000 f7 eb 72 bd 06 40 cb bd c7 25 cf bd a9 a6 2e bd
       -0.059307065 -0.09924321 -0.10114627 -0.04263941
000010 e0 4b 03 bd 6f e0 96 3c 15 93 63 bd 62 72 06 bd
       -0.032054782 0.018417565 -0.05556019 -0.032823928
000020 7c cb 85 bd c8 0e 92 bb a7 b0 31 3d a3 f6 bb bb
       -0.06532952 -0.0044573285 0.04338136 -0.0057361885
000030 1e 53 c4 bd a0 38 85 bd d3 29 27 3d 31 81 b1 3c
       -0.09586166 -0.06504941 0.04081137 0.021668049
000040 8d 92 24 bd 28 f4 57 bd 5f 7c 71 bd 88 1f bd 3c
       -0.040178824 -0.05272308 -0.0589565 0.023086324
000050 3d db 98 bd 98 57 81 bd 79 4f b4 bc fe 3c d7 bd
       -0.074636914 -0.06315535 -0.022010552 -0.1050968
000060 0d 6a 2e bd 31 6a 6c bc 13 03 af bc fc f1 69 3d
       -0.042581607 -0.014429615 -0.02136377 0.05711554
000070 35 52 83 bc ec 4b 17 3b 6d 00 26 bd e1 f6 8c 3d
       -0.01603041 0.0023086024 -0.04052775 0.06883026
000080 16 5e da 3d a0 08 c5 3d 60 59 b0 38 09 92 a5 3c
       0.10662477 0.09620786 8.4089814e-05 0.020211237
000090 2e d5 18 3e da 0c fb 3d bc f1 da 3d 06 09 22 bd
       0.14925072 0.122583106 0.106906384 -0.039559387
0000a0 0e ba 2a bd 3d ea b1 3d a3 b7 65 3d ea ce 12 3b
       -0.04168134 0.086872555 0.056083333 0.0022401162
0000b0 d8 fd 16 3c 30 24 9c bc 7f 8e 2b bd b1 29 59 bd
       0.0092157945 -0.019060224 -0.04188394 -0.053018276
0000c0 42 73 0e bd e9 d4 02 bd af 72 c1 bd 8b ce 53 bd
       -0.034777887 -0.03194133 -0.09445702 -0.051710647
0000d0 04 60 c5 bd 44 b0 23 bd 98 f3 86 bd 4d 74 06 bd
       -0.09637454 -0.039963022 -0.065894306 -0.032825757
0000e0 43 f0 c8 bd 80 ce b8 bd d3 09 f4 bc 45 72 99 bd
       -0.09811451 -0.09023762 -0.02978984 -0.07492498
0000f0 0d 8c 88 bd 91 bc eb bd 54 70 e3 bd 01 ce 85 bd
       -0.066673376 -0.115105756 -0.11105409 -0.06533433
000100 44 1a 81 bd a2 e5 fc bd e1 d5 15 bd c2 e6 c3 bd
       -0.06303838 -0.123484865 -0.036580924 -0.09565498
000110 ef d5 4a bd 66 26 ac bd 0a 32 d1 bd eb 6d cb bc
       -0.04952043 -0.084057614 -0.10214622 -0.024832686
000120 79 ce 0b 3d 00 0a dd 3c 1a c0 0f bb b8 93 d8 bb
       0.034132455 0.026982307 -0.002193457 -0.0066094063
000130 d1 2a 45 bd fa df 27 bd 1c a5 92 bd 1f 5e 9e 3c
       -0.048136536 -0.040985085 -0.07160398 0.01933199
000140 9e d0 7f bc 80 58 ac bb 98 aa c6 bc eb 79 61 bd
       -0.015613703 -0.0052595735 -0.024251267 -0.05504791
000150 11 99 c9 bc b3 d4 3e 3d f3 03 35 bd fb a5 2c bd
       -0.02460912 0.046589565 -0.04419322 -0.04215048
000160 e3 ef 80 bd a8 12 4d 3d dc 8b 5e 3d ce 35 5e 3d
       -0.06295755 0.05006662 0.0543326 0.05425053
000170 dc 08 b2 bc 67 ba 4b bc af 32 d5 3b 07 97 df 3d
       -0.02173274 -0.0124345785 0.006506286 0.10917478
000180 b1 70 d6 3d c7 66 90 3d 74 9f aa 3d 03 96 22 3c
       0.10470713 0.07050853 0.083311945 0.009923461
000190 0c 5e 57 3d e7 7e 57 bc 42 a1 8a 3b 81 9d 09 bc
       0.052579924 -0.0131528145 0.004230649 -0.008399368
0001a0 6d 55 d4 3c 07 c2 f9 3c 26 c4 d6 bc dd 95 18 bd
       0.02591964 0.030488027 -0.026216578 -0.037252296
0001b0 05 44 cd 3c 62 77 b8 bc 4f 72 19 bd 93 34 22 bc
       0.025056848 -0.022517864 -0.03746253 -0.00990023
0001c0 40 31 c8 bc 8e 88 ee bc 6c bf d4 3b b8 ac 80 bd
       -0.024437547 -0.029117849 0.006492546 -0.062829435
0001d0 1f 39 89 3c 4e ec 2c 3c 9e cf 00 bc bf 22 6d bc
       0.01675087 0.010554386 -0.007862 -0.014473616
0001e0 8e fb 7f bc c9 72 44 bd f3 ed 48 3c 60 43 2a bd
       -0.01562394 -0.04796103 0.012263763 -0.04156816
0001f0 6d 9c ad bb 5e 4b d4 3d 27 78 36 3d e2 1c 09 bd
       -0.0052981884 0.10365938 0.04454818 -0.03347481
000200 cf 73 ac bc 33 78 a8 3c 50 fa 66 3d e7 19 1b bc
       -0.021051316 0.020565128 0.05639106 -0.009466625
000210 09 bb de bc 58 d1 e3 bc e6 d7 b0 3a fe fa 9e bd
       -0.027188795 -0.027809784 0.0013492077 -0.07762717
000220 94 fa d2 bd 97 c3 a5 bc 0d c4 4d 3d 6c 9c 00 3c
       -0.103017 -0.020234866 0.050235797 0.007849794
000230 cf 82 6f bd 7a 47 4f bd 78 cb 61 3c 92 51 42 3d
       -0.05847436 -0.050605275 0.013781421 0.047441073
000240 15 fe c2 3d 6f c2 b0 bd 01 b7 b7 bd e0 ad 38 bd
       0.095211186 -0.08630835 -0.08970452 -0.045087695
000250 57 77 05 3b 56 6d b7 3d 46 a9 c5 bc a0 93 2c 3d
       0.0020365322 0.08956401 -0.024128567 0.042132974
000260 f6 5b d8 bc dd 73 d8 3c 10 9d a4 3c a4 ae fa bc
       -0.026411038 0.026422435 0.020094424 -0.030600853
000270 8d 9b 54 bd a5 44 32 bd b6 93 0b bd 6f 3d 9d 3c
       -0.051906157 -0.043522496 -0.034076415 0.019194333
000280 5c a7 93 bd d4 37 a7 bd 7e e6 46 3d a4 6b 51 3d
       -0.07209656 -0.08164945 0.04855966 0.051128045
000290 6c f5 aa 3d 76 75 b7 ba 87 89 bc 3c 5e 30 2c 3d
       0.08347592 -0.0013996798 0.023014797 0.042038314
0002a0 8a df 67 3d e4 a6 b3 bc 38 b7 a0 3b 2a 44 1f 3d
       0.056609668 -0.021930166 0.004904654 0.038883366
0002b0 81 29 2a bc 56 55 12 3d 90 13 5d 3d c4 66 35 bd
       -0.010385872 0.035725914 0.053973734 -0.044287458
0002c0 ec 12 cd 3c 3c 36 24 bd c8 7e b9 bc 32 28 98 3c
       0.025033437 -0.040090784 -0.022643462 0.018573854
0002d0 3c 3a 4e 3c 60 c9 de 3c 4e c2 95 3c ba f1 c6 bb
       0.012587126 0.027195632 0.018281128 -0.0060712965
0002e0 2a 4c 0f bc 45 03 b6 3c 56 e3 89 3d 50 04 c3 bc
       -0.008746186 0.022218356 0.06732814 -0.023805767
0002f0 7f c1 4f 3c 59 58 e8 bc 1b 15 d0 3d 57 5b 8b 3c
       0.01268041 -0.02836244 0.101602755 0.017011328
000300 7a 7c 7c 3d 08 bf d7 bc 5c 27 f6 3c ae e8 ec 3d
       0.061642148 -0.026336208 0.030048065 0.11567818
000310 c6 b9 3d 3d 37 58 63 3c 28 8d 0a 3d 99 06 e2 bc
       0.046319745 0.0138760125 0.033826023 -0.027591037
000320 a0 f9 e4 bc 4a b7 2a 3d 86 77 93 3c da 3f 63 bd
       -0.027951062 0.041678704 0.01800133 -0.055480815
000330 03 89 bb 3c 4a a2 37 3d bd b4 ae bc 26 3e 5e bd
       0.02289248 0.044832505 -0.021326417 -0.054258488
000340 33 09 cc bd df 58 91 bd 55 f8 21 3d 43 85 4a 3c
       -0.09962692 -0.07097029 0.03954347 0.012360874
000350 e4 4d af 3c ad b8 58 bd c9 fe 80 bb c5 f7 50 3d
       0.021399446 -0.052910496 -0.0039366228 0.05101754
000360 4a 73 d0 3d c2 fa c3 3c f1 90 8a 3d b3 0a 1a 3c
       0.1017824 0.023923282 0.06765927 0.009401965
000370 e1 f1 89 3d 6c f0 52 3d c9 b5 42 3d a7 df 4b 3d
       0.06735588 0.051498815 0.047536645 0.04977384
000380 37 ae 43 bb ae 18 b0 3c a1 f8 0a bc c7 70 34 bd
       -0.0029858479 0.021496143 -0.008482129 -0.044052865
000390 78 61 62 bd 29 83 dc bc aa b6 4d bd 5c 00 97 bd
       -0.055268735 -0.02691801 -0.05022303 -0.073731154
0003a0 d8 4f 53 3c 51 0d 44 bd 1b 4b b0 ba 29 56 a4 bd
       0.012897454 -0.047864262 -0.0013450118 -0.08024246
0003b0 d0 81 73 bd bf d4 25 3c b7 9f 0d 3c fe 7c d2 3b
       -0.05944997 0.010121523 0.008644036 0.0064235916
0003c0 dd 88 83 3b 90 24 82 3d ab 48 f2 3d 25 96 08 3e
       0.004014118 0.0635463 0.118302666 0.13338526
0003d0 ff 78 03 3d bf f7 0b bd 7b c6 74 3d ac 16 9c 3d
       0.032097813 -0.034171816 0.0597596 0.07621512
0003e0 0d f3 f4 3d ee 7c 9e 3c a2 ea a0 bd ad b6 00 bd
       0.11960421 0.01934668 -0.07857253 -0.031424213
0003f0 80 86 67 3a ef 72 6b 3c e2 44 2e bd 80 4d 62 3d
       0.0008831993 0.014370664 -0.04254616 0.05524969

fc1.bias f4 [120]
000000 bc e2 cd 3d 47 ee 10 3d 5f 95 df 3c 45 23 49 bd
       0.10053012 0.03538349 0.027292905 -0.0491059
000010 57 eb 35 bd cd 2f 1e bd 5b 93 a1 bd 70 a2 88 3d
       -0.04441389 -0.038619805 -0.07889434 0.066716075
000020 e1 e1 73 3d 30 63 26 bd 12 a5 9e 3c c9 ae e1 3d
       0.059541587 -0.040621936 0.019365821 0.11019666
000030 a1 bf 0b 3e 74 8f 2a bb 39 21 46 bd b6 72 15 bc
       0.1364732 -0.0026025446 -0.048371527 -0.0091215875
000040 46 1f 3d bd 65 7d 17 3c ac 53 c6 bc 9f 3e 5d 3b
       -0.046172403 0.009246205 -0.02420982 0.003375925
000050 f5 04 ca 3c 31 27 d5 bc 5b 3e 53 bb c0 7e de bc
       0.024660567 -0.026019664 -0.0032233212 -0.027160048
000060 b2 70 5b bd 02 90 f8 3d 57 70 59 3c b5 89 c2 bd
       -0.05357427 0.12136842 0.013271413 -0.09498922
000070 fd 05 76 3e bf 09 02 3b bf 6e 0f bc be a0 63 bd
       0.24025722 0.0019842235 -0.008754431 -0.055573218
000080 d4 e1 88 bc 3c e3 60 3d 55 ce fc bd 16 f3 2b 3d
       -0.016709246 0.054904208 -0.12344042 0.04197987
000090 da ec 4f 3c 95 7d 56 bb 64 4f 38 3c 10 43 5c bc
       0.012690747 -0.0032728661 0.011249397 -0.013443723
0000a0 b1 e1 0a 3e c4 17 96 3d a0 3e a3 3d 6b 99 06 3e
       0.13562657 0.07328752 0.07970929 0.13144462
0000b0 9b a3 18 3d 17 c2 9c bc 29 31 39 bd fb 83 a5 3d
       0.0372654 -0.019135518 -0.0452129 0.08081814
0000c0 d8 7f e9 bc 88 6e 81 bd db 57 9b 3d 16 d3 40 3e
       -0.028503343 -0.0631991 0.075851165 0.18830523
0000d0 d6 92 49 3c c1 79 85 3d 78 9b a3 bb 54 1c 3f bd
       0.012303075 0.06517363 -0.0049928986 -0.046657875
0000e0 61 13 b8 3d 7d 67 f6 3d d5 eb c5 3d 9a af 7d 3c
       0.08988071 0.120314576 0.09664122 0.015483761
0000f0 5d ef 21 3d 44 28 24 3d d9 25 9d 3d bb 12 01 3e
       0.039534915 0.040077463 0.076732345 0.12604801
000100 b0 0c 01 3d 88 a6 86 3c a7 cb 2c bd f9 65 85 3d
       0.03150624 0.01643683 -0.042186406 0.0651359
000110 fe a7 e2 3d 08 4f 3b bc 26 2e 05 bd a4 0f 33 3d
       0.11067198 -0.011432417 -0.032514714 0.043716088
000120 43 e0 9f bc 9b 24 b9 3c c8 ba a9 bd 2c ee b1 bc
       -0.019516116 0.022600463 -0.08287579 -0.021720015
000130 69 80 45 bd 87 14 6a bc d0 70 d5 3b 52 d9 43 3d
       -0.048218165 -0.014287121 0.0065136924 0.047814675
000140 da c7 7f 3d 58 8c a5 3d 1e 90 9a bd 4f 37 54 3c
       0.062446453 0.08083409 -0.075470194 0.01295264
000150 e2 6f ab bc c1 18 04 3d 6a a7 84 3c 46 38 07 3e
       -0.020927373 0.03225017 0.01619311 0.1320506
000160 6b b1 65 3d b5 e3 1e 3c 3e 39 e9 3d c8 ab c5 3d
       0.056077402 0.009697844 0.11387871 0.09651905
000170 6b 1d 87 3c 80 f6 50 bd 1c 15 21 3e 87 e4 cd bc
       0.01649352 -0.05101633 0.15730709 -0.025133384
000180 d3 44 21 bc 92 72 5d 3e e6 ab 41 bd 41 5f 47 ba
       -0.009843069 0.21625736 -0.047283076 -0.00076054415
000190 c2 b9 2d 3b 22 4c 02 be 32 f1 6a 3c 7f 14 1e 3d
       0.0026508425 -0.12724355 0.014339732 0.038593765
0001a0 7f d2 a0 3d 9b fe ab bd 72 6f ea bd 41 f3 d9 bd
       0.07852649 -0.083981715 -0.11447038 -0.106421
0001b0 f5 e8 20 3e 26 05 58 3d 99 a7 bc 3c 02 83 da bc
       0.15713866 0.052739285 0.023029136 -0.026673798
0001c0 a0 21 11 3d c1 75 2b 3d d1 a5 89 3d c5 16 93 3c
       0.035432458 0.041860346 0.0672108 0.017955193
0001d0 b6 7f 02 3d 32 ae 7f 3d c9 e2 ec 3a 14 de d3 bc
       0.031860076 0.062421985 0.0018072958 -0.025862731

fc2.weight f4 [84, 120]
000000 c2 4b 19 3e 1d 80 6e 3d 7d 14 d7 3d a1 a1 f7 bd
       0.14970306 0.058227647 0.10501955 -0.12091375
000010 e7 92 b3 39 8f 69 1b bd 1d 9f 04 bd 58 1a da 3c
       0.0003425099 -0.037942465 -0.032378305 0.02662389
000020 ab 0b 16 bd 1c bf a3 bc 6d bd a1 bc 41 ee 23 bd
       -0.03663222 -0.019988589 -0.019743646 -0.04002214
000030 39 b5 69 bc ac e4 23 bd 47 9f 66 3c 17 2d 30 bc
       -0.014264398 -0.040013 0.014076061 -0.010752938
000040 5d 21 18 3d 0a 78 10 3d 17 60 90 bd f6 9a 6c bd
       0.037141193 0.03527073 -0.07049578 -0.05776497
000050 c2 86 8b bd eb 07 8e bc 81 96 19 bc a8 56 96 3d
       -0.068128124 -0.01733776 -0.009374262 0.07340747
000060 e3 2f 29 bc ed 96 30 3d 7f 9e 66 bd 77 44 07 be
       -0.0103263585 0.043112684 -0.056303497 -0.13209711
000070 e0 4f b9 3d 00 c9 65 bd 0a 16 9c bd 3f 4f 93 bb
       0.09048438 -0.05609989 -0.07621391 -0.004495531
000080 36 5e 54 bd b1 1e e5 3c 93 1e b5 bd e8 59 70 bd
       -0.05184766 0.027968736 -0.08843722 -0.05867949
000090 29 ad f1 3c 20 e3 55 3d 17 9c aa bd fd 68 5e 3d
       0.029501515 0.052218556 -0.08330553 0.054299343
0000a0 2a 3e 0e 3d 0c 35 5a 3c 00 e7 cf 3d 6e 54 0d 3b
       0.034727253 0.013318311 0.10151482 0.0021565217
0000b0 6b 36 b4 3c fc 5c c1 3d b6 20 e9 3a f7 56 d9 3d
       0.021998605 0.094415635 0.0017786238 0.1061229
0000c0 a9 d2 4f bd d0 59 32 3d 75 b8 cd bc a3 0b e2 bd
       -0.05073801 0.043542683 -0.02511237 -0.11037376
0000d0 44 60 19 3d 30 90 8a bd 16 53 86 bd ab 3f 82 bc
       0.03744532 -0.06765783 -0.06558816 -0.0158995
0000e0 ac 83 e3 3d b3 5c 90 3d 54 47 96 bd ee 72 05 3d
       0.11109099 0.07048931 -0.073378235 0.03258031
0000f0 d9 4e ab 3c 39 a7 04 bd 21 9d a4 3d 6d d2 b9 bd
       0.02091162 -0.03238604 0.080377825 -0.09073339
000100 d5 82 be 3c 50 aa d2 3b 2a 99 f5 bd 87 20 48 3d
       0.023255745 0.0064289942 -0.11992104 0.048859145
000110 ca 92 8e 3d 5d d0 11 bd 3e 84 b5 bd 60 4d 49 bd
       0.069615915 -0.0355991 -0.08863114 -0.049146056
000120 c2 b5 92 bb de aa 32 3d 70 c8 12 3d c9 ec ca 3d
       -0.0044772336 0.043619983 0.035835683 0.099084444
000130 4f 47 90 bd 5a 8e 90 3d 18 c0 c9 bd ac 0b 8c 3d
       -0.07044851 0.070584014 -0.09851092 0.06838164
000140 c0 ad 4b 3d f5 9b 09 3d e0 9e 70 bd e2 d9 8d 3d
       0.049726248 0.033595998 -0.058745265 0.069263235
000150 50 62 68 bd dc 09 d2 bd 4d a4 ac 3d 44 56 42 bc
       -0.056734383 -0.10255787 0.084297754 -0.011861388
000160 72 3d 82 3d 7f 60 53 bd ed 15 10 3e 92 05 9b 3c
       0.06359376 -0.051605698 0.14070864 0.018923555
000170 e3 50 bf 3c 51 87 76 bd ab b5 e3 3d e4 e9 9a 3d
       0.023354 -0.06018764 0.11118635 0.07564142
000180 79 cd 99 bd ee 0a 1f 3e 4d 78 a7 bd 05 f9 6f 3d
       -0.07509894 0.15531513 -0.081772424 0.058587093
000190 48 2f 0c 3d 02 3e 92 bd 83 18 73 3d af 55 d7 3c
       0.03422478 -0.07140733 0.059349548 0.026285974
0001a0 ef d2 0f 3d fa 24 8c bd 6b 2d 7d bd 8c a7 77 bd
       0.03511327 -0.0684299 -0.061810892 -0.06046252
0001b0 b6 6f 92 bc 03 cb 24 be 5a e6 81 bc 06 22 9d bd
       -0.017875534 -0.16093068 -0.01585691 -0.07672505
0001c0 1a 91 d6 3c 1e 86 fc 3d 59 e0 e0 3d 74 2e 1b 3d
       0.026192237 0.12330268 0.10980291 0.037886098
0001d0 88 43 8d bd da 0c 1b 3d b6 99 d5 bc af 2d 29 3d
       -0.06897646 0.037854053 -0.026074272 0.041303333
0001e0 f6 0a 33 3c 34 04 d3 bd 01 11 88 3d f1 87 a5 bd
       0.010927906 -0.10303536 0.06643868 -0.080825694
0001f0 19 d0 d4 bd 49 b8 ca bb c2 f9 a1 3d d2 c2 db bc
       -0.10391254 -0.0061865193 0.07908966 -0.026826296
000200 a9 49 d5 bd 2c 31 83 bc 69 c4 2e bd cd 68 38 bd
       -0.1041444 -0.016014658 -0.04266778 -0.04502182
000210 38 29 2b bd 68 b8 a9 3c d8 a5 9a bd 4f 7e 1b be
       -0.041787356 0.020717815 -0.075511634 -0.15184902
000220 83 95 ab bd 17 3c 0c 3c 89 36 bc bd 8f b4 16 3e
       -0.083781265 0.008559248 -0.09190089 0.14717315
000230 47 b2 b9 3d 63 a9 33 bc 6c 50 a8 3d 24 da 08 be
       0.09067207 -0.010965678 0.08218464 -0.13364464
000240 d5 34 a6 3a 78 77 94 3d c4 79 7f 3d a4 7f 79 3d
       0.001268054 0.07249349 0.062371984 0.060912743
000250 9d bc 31 3c 54 4f fe 3d ff 8c 88 bd 66 af 56 3d
       0.010848192 0.124174744 -0.06667518 0.052413367
000260 19 f2 d5 3d 97 28 b1 3d 8c ac 0a be 47 03 99 3d
       0.10446567 0.0865032 -0.13542384 0.07471328
000270 3a ae 0f 3d 8b af fc 3c 4a 4b 41 bd ec 0e f0 bc
       0.035078265 0.030845424 -0.047190942 -0.02930399
000280 af 1c 4a 39 4d 49 e1 3d ba ff e2 bd e4 46 bb bc
       0.00019274907 0.11000309 -0.11083932 -0.022860952
000290 7a 33 32 3d 18 52 4d 3d 16 ae 99 3c 36 7a e5 3d
       0.043506123 0.05012712 0.018759768 0.112049505
0002a0 6c e7 e9 bc 1b a3 01 bd 27 7a 87 bd a9 01 09 3d
       -0.028552733 -0.03164969 -0.066150956 0.03344885
0002b0 7b 86 84 bc b8 ac 42 3d bd 98 d4 bd e9 cf 20 3b
       -0.016177407 0.047528 -0.10380695 0.0024537987
0002c0 06 e3 17 bc fa 10 48 3d 2b 70 3f 3e a9 f1 bc 3d
       -0.009270435 0.048844315 0.18695132 0.092257805
0002d0 60 e2 9a bd 81 ee 8a bd 69 70 86 bd b8 44 92 bd
       -0.07562709 -0.06783772 -0.06564409 -0.07142013
0002e0 d8 52 56 3d ef 1b 5d bd 42 e0 97 bd 6f f6 89 bd
       0.0523251 -0.053981718 -0.07415821 -0.067364566
0002f0 18 e8 4c bd 12 fd 95 3d 3b ad bd 3c 79 70 b6 bc
       -0.05002603 0.0732366 0.023153892 -0.022270428
000300 79 a6 04 3e 45 bd 07 be 3b f5 b4 bd 29 84 24 3d
       0.1295413 -0.13255794 -0.088358365 0.0401651
000310 16 ed 5c 3d 52 b2 80 3d f6 d4 86 3d 01 f5 24 bc
       0.05393704 0.06284012 0.06583588 -0.010068179
000320 2e e5 84 3d 1f 6c e5 3d c4 d1 d9 3b 13 71 5b bd
       0.06489025 0.11202263 0.0066473205 -0.053574633
000330 55 6a 2b bd 34 d6 6d bd 22 af 0e be ef 02 53 bc
       -0.041849453 -0.05806561 -0.13933995 -0.012879117
000340 56 52 38 3d 73 99 51 3d 18 be e2 3c 22 06 64 bd
       0.045000397 0.05117173 0.027678534 -0.05566991
000350 35 25 c8 bd 3b ac 7d bd 9a 11 9e bd 36 44 2f 3c
       -0.09772722 -0.06193183 -0.07718201 0.010697415
000360 f3 54 60 3d d6 f2 6e 3d 41 ad c5 bd be 52 36 bd
       0.054768514 0.058337055 -0.09652186 -0.044512503
000370 d8 33 05 bd 87 11 97 3d c3 a0 34 bd 7e 9e e8 3d
       -0.032520145 0.0737639 -0.044098627 0.11358355
000380 fb cd 60 bc 2c 21 07 bd cb fb a0 bb b7 33 ef 3c
       -0.013720985 -0.03299062 -0.0049128286 0.029199464
000390 9d 12 d1 bd 30 55 85 3d f2 2c 6f 3c 88 13 67 3c
       -0.10208628 0.06510389 0.014598118 0.014103778
0003a0 4f 67 bb 3c 08 45 15 3d 54 b6 19 3c cc 08 d1 bc
       0.02287641 0.036442786 0.009381849 -0.02551689
0003b0 7b 1d 90 3d cc 47 55 38 d0 c4 06 bb e0 bf 9e bd
       0.07036873 5.0850023e-05 -0.0020564087 -0.07751441
0003c0 8d fb 7b 3d ff c9 e5 3c 89 66 3d bd 7a 00 bb bc
       0.061519194 0.02805042 -0.046240363 -0.022827376
0003d0 7d b7 b5 3c 9e 19 4c 3b 92 33 07 bd a8 51 a2 b9
       0.02218222 0.0031143199 -0.033008166 -0.00030959886
0003e0 63 aa c6 3c fd 84 a7 bd a9 04 5a 3c 27 3d 82 bd
       0.024251169 -0.081796624 0.013306775 -0.0635932
0003f0 c9 a6 7b 3d aa 22 0a 3d 3c ce c7 3d 0a 27 4b 3d
       0.061438356 0.033724464 0.09756133 0.049597777

fc2.bias f4 [84]
000000 e5 60 a0 3e b8 2d 51 bc e1 5a c4 3c a6 9c 41 3d
       0.31323925 -0.012767248 0.023969116 0.047268532
000010 6c 03 b5 bd 5c d6 1d 3e 1e d5 f6 3c 28 0d 88 bd
       -0.08838543 0.15413803 0.03013092 -0.06643134
000020 d8 c7 50 3e 5d 5a 35 3d 87 2c 77 ba 4a 77 29 3e
       0.20388734 0.04427563 -0.00094289373 0.16549411
000030 8f 81 b2 bc f0 0d ca 3d af 07 0e be cf 9a 83 3e
       -0.021790294 0.098659396 -0.13870119 0.25704047
000040 c0 d5 7c 3e ae af 2c 3d 8b 50 61 3d 05 d0 5b 3d
       0.24690914 0.04215973 0.055008452 0.05366518
000050 70 c3 40 bd 3b 76 b0 3e 19 83 39 3e 85 5f ad bd
       -0.047061384 0.34465203 0.18116416 -0.084654845
000060 68 78 35 3d 5c d1 3d 3e 5c 09 8a 3c 2c 2f 97 3d
       0.04430428 0.18536896 0.016850166 0.07382044
000070 24 ee 14 3c 64 5c 45 3d ce a7 52 bd af 9c 8e 3e
       0.00908998 0.048183814 -0.051429562 0.27853915
000080 a9 7e f1 3d 3b 5b f2 bc 86 07 de bb aa 7c 25 be
       0.11791737 -0.029584518 -0.006775799 -0.16160837
000090 2c ea 69 bd 7f cf f7 bd b3 37 0b 3d 51 38 04 3d
       -0.05710809 -0.121001236 0.033988666 0.03228027
0000a0 09 cb a9 bd c3 2a 0e 3e f6 bd de bd cd d4 f5 3d
       -0.08290679 0.138835 -0.10876076 0.12003479
0000b0 58 0f 63 3d bf 35 70 bd d3 b3 90 3d 57 d3 95 3e
       0.055434555 -0.058645006 0.07065549 0.29262802
0000c0 f5 44 e9 bd ff c2 86 3d 76 c0 8d bc 0f ca 3b 3e
       -0.11390106 0.06580161 -0.017303687 0.18338798
0000d0 61 82 45 3d de 22 ff bc 58 95 b4 3d ee b5 8c bd
       0.048220042 -0.031144556 0.088175476 -0.06870638
0000e0 96 0b 54 3d 7b c1 a6 bc 77 f4 23 bd 2e 2e 5c bc
       0.05176886 -0.02035593 -0.04002806 -0.0134387445
0000f0 7a f0 c2 bd 32 df df 3d 82 ec 76 3e d6 18 12 bd
       -0.095185235 0.10931243 0.24113658 -0.035668217
000100 68 54 d0 3d 7e 5e 84 bd 7a d2 4e 3e c3 e2 a2 bd
       0.10172349 -0.064633355 0.20197478 -0.079534076
000110 6d 90 a7 3d f8 3e 44 bd 8f 7e be 3e 92 57 dc bc
       0.08181844 -0.047911614 0.37205932 -0.026897226
000120 39 b0 db 3d 91 25 9a bc d8 33 97 3e 73 6e 86 bd
       0.10726971 -0.018816741 0.2953174 -0.06564035
000130 5f ff 84 bb 12 18 d5 3d 96 a1 43 3e ac 1a 2f 3e
       -0.004058763 0.10404982 0.19104609 0.17100018
000140 d7 95 4f b7 05 57 ce bd a1 06 13 3e 8e 4b 5b 3e
       -1.2373049e-05 -0.100751914 0.14357997 0.2141554

fc3.weight f4 [10, 84]
000000 d4 ed e8 3d 48 d3 a0 3e d6 9a e9 3d 84 16 0f 3e
       0.11373487 0.31411195 0.11406486 0.13973433
000010 a6 50 0e 3e 3e 4c 20 3e 62 ca a3 3b 38 66 ee 3d
       0.13897952 0.15654084 0.004998491 0.116405904
000020 1e ef 5b be 21 d0 2d bd a8 ea af 3d 7e 85 98 3c
       -0.21477935 -0.042434815 0.08589679 0.018618342
000030 34 2e e0 3d 42 4a 7d 3c 59 f1 1f 3e 41 63 9b be
       0.109463125 0.015459599 0.1561941 -0.30349162
000040 0c e6 8c 3e 5a af 8f 3e bc 79 7b bd 30 32 f8 3c
       0.27519262 0.2806347 -0.06139539 0.030297369
000050 cb 91 fc bb 30 b2 30 3e c0 6e 02 3e 1a eb b1 bb
       -0.0077078096 0.17255473 0.1273756 -0.0054296376
000060 b9 e8 f2 3d 1e e6 87 3e 0b 07 38 bd 72 e8 d2 3d
       0.118607946 0.26542753 -0.04492859 0.10298242
000070 01 14 01 be cb fc 38 3e ba 78 52 3c df bf d6 bd
       -0.12605287 0.18065183 0.012846166 -0.10485815
000080 3f a8 e9 bd 36 84 06 be df 8c 88 3d ba 83 9c bd
       -0.114090435 -0.13136372 0.06667494 -0.07642312
000090 34 e4 02 3d f3 15 27 3e a4 e4 69 3d 7f 22 80 be
       0.031955913 0.16316967 0.057102814 -0.25026318
0000a0 90 a3 81 bd cd a5 ac bd 53 35 45 3e 98 94 b3 bc
       -0.06330025 -0.084300615 0.19258623 -0.021921441
0000b0 e3 f0 43 3e 30 e8 55 3d d9 20 b2 3c a8 00 2d be
       0.1913486 0.052223384 0.021744179 -0.16894782
0000c0 30 8f 8b 3d 83 11 0c 3e e5 4d 04 be 81 20 b9 3d
       0.0681442 0.13678555 -0.1292034 0.09039403
0000d0 64 49 55 3e 5b 93 bb bd 09 51 33 bb 07 7a 28 3e
       0.20828778 -0.09158965 -0.0027361533 0.164528
0000e0 a5 3d 4f bc b4 b4 82 3e 34 72 17 bd ba 09 dd 3d
       -0.012648975 0.2552849 -0.036974147 0.10792871
0000f0 34 56 45 3b 64 41 74 3e 93 05 3b 3e fc 34 d2 3c
       0.0030111196 0.2385307 0.18263845 0.02566003
000100 a9 f6 c3 bc 6d 8c 77 bd 2c 7c 7e bd e3 be 7d 3d
       -0.023921328 -0.060436655 -0.06213014 0.061949622
000110 c9 60 a2 bd 0f e3 a5 3d ec 28 da 3c 83 ee 66 3d
       -0.079286166 0.080999486 0.026630841 0.056379806
000120 89 a5 e8 bc 0a 60 ee bd 1e d7 95 be 01 0a 16 bd
       -0.028399246 -0.11639412 -0.29265684 -0.036630634
000130 de 26 62 be be 3a a9 3d a4 83 7b 3c 7d 0d c4 bc
       -0.22085139 0.08263157 0.01535121 -0.023932213
000140 95 bd eb bd 92 a8 3c 3d 0b 77 96 bd 18 ee b1 bd
       -0.11510769 0.0460592 -0.073469244 -0.08687991
000150 36 81 75 3c 16 77 1e be ff 2f 86 3d 92 3b 9d 3d
       0.01498442 -0.15475115 0.06552123 0.07677378
000160 15 21 8d bd cd 61 95 be 06 8f b9 3d 35 17 58 3d
       -0.068910755 -0.2917618 0.09060483 0.052756507
000170 53 d3 14 be 7d 0b be bd f2 ef 0a 3c ba 0a e0 bd
       -0.14533739 -0.09279535 0.008480059 -0.10939546
000180 9e 29 1b 3e 86 38 48 3d ca 05 b6 bc 38 c7 41 be
       0.15152594 0.04888203 -0.022219557 -0.18923652
000190 22 ac 49 bd 35 23 75 3e cc ee 5a 3e ea c1 88 3d
       -0.049236424 0.23939212 0.21380156 0.06677611
0001a0 dc 60 76 bd 79 1e 84 be e0 5f 43 be 9a b4 a6 bd
       -0.060150966 -0.258045 -0.19079542 -0.08139916
0001b0 be 5a de bd 9a 5d a4 bc df 36 18 3e 4b 04 35 be
       -0.108571514 -0.020064164 0.14864682 -0.17677419
0001c0 34 3a 39 3d 6f f4 f7 bd f1 95 77 bd 8f 62 eb bd
       0.045221522 -0.12107169 -0.06044573 -0.11493408
0001d0 c6 dd 2b be 61 ac b6 3d 67 22 90 bd da 48 3d 3e
       -0.16783819 0.089195974 -0.07037812 0.18484822
0001e0 86 cf e2 3d f8 88 1a 3e c2 89 15 bd a6 63 8a bd
       0.11074738 0.15091312 -0.03650833 -0.06757288
0001f0 4d a9 3b 3d a6 70 25 be c5 dd 48 bd 52 ad 4b 3c
       0.045815755 -0.16156253 -0.04903962 0.0124314595
000200 02 f5 32 bc 8a 46 96 bc a8 71 cd 3d 3c 41 f8 bd
       -0.010922672 -0.018344183 0.10031444 -0.121218175
000210 75 05 40 3d 89 8e 89 bc 05 b1 e6 bb 0d 07 14 be
       0.046880204 -0.016791599 -0.0070401453 -0.14455815
000220 df ee 9a bd 01 5f 34 3e ff f9 cb bd 09 7d f7 3d
       -0.07565092 0.17614366 -0.09959792 0.120843954
000230 40 0e 36 3e 7e b9 89 3e 7c 0a 94 3d 95 65 b2 3d
       0.17778873 0.26899332 0.07228562 0.087107815
000240 e9 cd b1 3e ae c1 5d bd cf 9d 4e 3e 7b 12 6e 3d
       0.3472741 -0.054139785 0.20177387 0.058123093
000250 9b 74 d0 3e 8e 55 25 bc 28 66 ee bd a7 f4 be 3d
       0.40713963 -0.010091199 -0.116405785 0.093240075
000260 d5 b9 af be c9 21 d4 bd da 0d c5 be 6b d1 b9 3c
       -0.34321466 -0.103580065 -0.3848713 0.022682866
000270 50 29 01 be 42 e0 28 bc 72 03 c7 bc 26 a3 37 3e
       -0.12613416 -0.0103073735 -0.024293635 0.1793333
000280 b9 c3 53 3e 0e d9 32 be 82 a3 07 be 37 29 78 be
       0.20680131 -0.17465612 -0.13245967 -0.24234472
000290 7b af 79 bd 48 6f 00 3e a1 21 da 3c 74 ee 88 be
       -0.060958367 0.1254245 0.026627364 -0.26744425
0002a0 e6 ea 3e be a4 06 27 3e 21 a2 96 3d a3 db 6e 3c
       -0.18644294 0.16311127 0.073551424 0.014578733
0002b0 59 8b d9 bd f6 f4 8e 3d 02 91 ae 3d d6 a6 56 3d
       -0.106222816 0.06980316 0.08523752 0.0524052
0002c0 e2 9c 75 3e d1 e5 93 bd 52 3f 54 3c 9b 6c b8 bd
       0.23985627 -0.072215684 0.01295455 -0.0900509
0002d0 9b e3 e5 3d 5a f2 1c be cb fe 84 3d 8f 8a 63 3e
       0.11225053 -0.15326825 0.064939104 0.22220825
0002e0 2d db 46 3e b2 d1 98 bc f1 03 03 3d 3c c3 a6 3b
       0.19419546 -0.018654678 0.03198618 0.0050891917
0002f0 42 d4 e1 3d dd 25 72 3e 75 4a 46 3d 76 58 e2 3d
       0.11026813 0.23647256 0.04841085 0.11052029
000300 9c 01 53 be eb 01 fc 3d 89 50 16 be a2 f2 d3 bd
       -0.20606083 0.12305053 -0.14679159 -0.10349013
000310 dd 3b cd 3d 8a 9b 39 be a6 77 a0 3d 8c dc 47 3d
       0.10021184 -0.1812574 0.07835321 0.048794314
000320 c5 5b 64 bc 90 2a 95 bd 2a f8 66 bd ad 8f 37 3e
       -0.013937895 -0.07283509 -0.05638901 0.17925902
000330 70 ac b1 3d a3 b7 34 3e 56 43 35 3c ff 20 ec bd
       0.08675468 0.17648177 0.011063417 -0.11529731
000340 11 ac 03 3e 9e a2 ca bd f0 6a ca 3d 83 7a 29 be
       0.12858607 -0.09894298 0.09883678 -0.16550641
000350 cd 71 63 3e 47 d5 18 bd f1 b6 ab 3d e4 8e eb 3d
       0.2221138 -0.037312772 0.08384503 0.115018636
000360 62 44 76 3b 92 13 4e bd 02 d1 71 3d 60 38 f9 bd
       0.003757738 -0.050311632 0.059037216 -0.12168956
000370 56 35 a9 3c fa 1f 0c be f4 2e eb bd 63 c4 94 bd
       0.020655315 -0.13684073 -0.11483565 -0.0726402
000380 e3 fc 08 be 65 22 31 be 12 87 cc bd 54 99 76 3d
       -0.13377719 -0.17298277 -0.099867 0.06020482
000390 cc 95 31 be 6c 27 9c 3c 07 fe 81 be ac c5 90 bd
       -0.17342299 0.019061767 -0.2538912 -0.07068953
0003a0 1d 4e 06 be 98 f5 15 3c 20 36 ea 3c 5b cb f9 3c
       -0.13115735 0.009152792 0.028590262 0.030492475
0003b0 5e 20 64 3e 7a 51 7b bd dc 93 84 3e cb ac 30 be
       0.22277972 -0.061357 0.25894058 -0.17253415
0003c0 b2 0c 52 3d 91 6b 03 3b d3 43 3d bd f5 1a 85 bc
       0.05128164 0.0020053128 -0.04620726 -0.016248206
0003d0 6b a6 fa 3d 5e 67 a4 3e f4 da 06 3e b6 bb 43 3c
       0.12238773 0.32110113 0.13169461 0.011946609
0003e0 37 55 93 bd a8 93 59 bd d2 21 24 bd 9e 2f 48 3e
       -0.07193988 -0.05311933 -0.040071316 0.19549415
0003f0 b7 7a eb bd 85 a1 80 bc 17 26 bd 3d fe f2 8d bd
       -0.114980154 -0.015702019 0.09235781 -0.06931113

fc3.bias f4 [10]
000000 cf 78 e7 bd f0 c6 f8 be 09 63 b0 3d 94 98 80 3e
       -0.11302339 -0.48589277 0.086126395 0.25116408
000010 d6 a6 c4 3e 2d a8 07 be 31 48 f9 bd 47 54 60 be
       0.38408536 -0.13247748 -0.121719725 -0.2190715
000020 37 5a e5 3e 01 6f 14 be
       0.4479539 -0.1449547
